{
  "format": "layers-model",
  "generatedBy": "keras v3.3.3",
  "convertedBy": "TensorFlow.js Converter v4.19.0",
  "modelTopology": {
    "keras_version": "3.3.3",
    "backend": "tensorflow",
    "model_config": {
      "class_name": "Functional",
      "config": {
        "name": "functional_3",
        "trainable": true,
        "layers": [
          {
            "class_name": "InputLayer",
            "config": {
              "batch_shape": [null, 176, 208, 3],
              "dtype": "float32",
              "sparse": false,
              "name": "input_layer_2"
            },
            "name": "input_layer_2",
            "inbound_nodes": []
          },
          {
            "class_name": "Rescaling",
            "config": {
              "name": "rescaling",
              "trainable": true,
              "dtype": "float32",
              "scale": 0.00392156862745098,
              "offset": 0.0
            },
            "name": "rescaling",
            "inbound_nodes": [
              {
                "args": [
                  {
                    "class_name": "__keras_tensor__",
                    "config": {
                      "shape": [null, 176, 208, 3],
                      "dtype": "float32",
                      "keras_history": ["input_layer_2", 0, 0]
                    }
                  }
                ],
                "kwargs": {}
              }
            ]
          },
          {
            "class_name": "Functional",
            "config": {
              "name": "resnet50v2",
              "trainable": true,
              "layers": [
                {
                  "class_name": "InputLayer",
                  "config": {
                    "batch_shape": [null, 176, 208, 3],
                    "dtype": "float32",
                    "sparse": false,
                    "name": "input_layer"
                  },
                  "name": "input_layer",
                  "inbound_nodes": []
                },
                {
                  "class_name": "ZeroPadding2D",
                  "config": {
                    "name": "conv1_pad",
                    "trainable": false,
                    "dtype": "float32",
                    "padding": [
                      [3, 3],
                      [3, 3]
                    ],
                    "data_format": "channels_last"
                  },
                  "name": "conv1_pad",
                  "inbound_nodes": [
                    {
                      "args": [
                        {
                          "class_name": "__keras_tensor__",
                          "config": {
                            "shape": [null, 176, 208, 3],
                            "dtype": "float32",
                            "keras_history": ["input_layer", 0, 0]
                          }
                        }
                      ],
                      "kwargs": {}
                    }
                  ]
                },
                {
                  "class_name": "Conv2D",
                  "config": {
                    "name": "conv1_conv",
                    "trainable": false,
                    "dtype": "float32",
                    "filters": 64,
                    "kernel_size": [7, 7],
                    "strides": [2, 2],
                    "padding": "valid",
                    "data_format": "channels_last",
                    "dilation_rate": [1, 1],
                    "groups": 1,
                    "activation": "linear",
                    "use_bias": true,
                    "kernel_initializer": {
                      "module": "keras.initializers",
                      "class_name": "GlorotUniform",
                      "config": { "seed": null },
                      "registered_name": null
                    },
                    "bias_initializer": {
                      "module": "keras.initializers",
                      "class_name": "Zeros",
                      "config": {},
                      "registered_name": null
                    },
                    "kernel_regularizer": null,
                    "bias_regularizer": null,
                    "activity_regularizer": null,
                    "kernel_constraint": null,
                    "bias_constraint": null
                  },
                  "name": "conv1_conv",
                  "inbound_nodes": [
                    {
                      "args": [
                        {
                          "class_name": "__keras_tensor__",
                          "config": {
                            "shape": [null, 182, 214, 3],
                            "dtype": "float32",
                            "keras_history": ["conv1_pad", 0, 0]
                          }
                        }
                      ],
                      "kwargs": {}
                    }
                  ]
                },
                {
                  "class_name": "ZeroPadding2D",
                  "config": {
                    "name": "pool1_pad",
                    "trainable": false,
                    "dtype": "float32",
                    "padding": [
                      [1, 1],
                      [1, 1]
                    ],
                    "data_format": "channels_last"
                  },
                  "name": "pool1_pad",
                  "inbound_nodes": [
                    {
                      "args": [
                        {
                          "class_name": "__keras_tensor__",
                          "config": {
                            "shape": [null, 88, 104, 64],
                            "dtype": "float32",
                            "keras_history": ["conv1_conv", 0, 0]
                          }
                        }
                      ],
                      "kwargs": {}
                    }
                  ]
                },
                {
                  "class_name": "MaxPooling2D",
                  "config": {
                    "name": "pool1_pool",
                    "trainable": false,
                    "dtype": "float32",
                    "pool_size": [3, 3],
                    "padding": "valid",
                    "strides": [2, 2],
                    "data_format": "channels_last"
                  },
                  "name": "pool1_pool",
                  "inbound_nodes": [
                    {
                      "args": [
                        {
                          "class_name": "__keras_tensor__",
                          "config": {
                            "shape": [null, 90, 106, 64],
                            "dtype": "float32",
                            "keras_history": ["pool1_pad", 0, 0]
                          }
                        }
                      ],
                      "kwargs": {}
                    }
                  ]
                },
                {
                  "class_name": "BatchNormalization",
                  "config": {
                    "name": "conv2_block1_preact_bn",
                    "trainable": false,
                    "dtype": "float32",
                    "axis": 3,
                    "momentum": 0.99,
                    "epsilon": 1.001e-5,
                    "center": true,
                    "scale": true,
                    "beta_initializer": {
                      "module": "keras.initializers",
                      "class_name": "Zeros",
                      "config": {},
                      "registered_name": null
                    },
                    "gamma_initializer": {
                      "module": "keras.initializers",
                      "class_name": "Ones",
                      "config": {},
                      "registered_name": null
                    },
                    "moving_mean_initializer": {
                      "module": "keras.initializers",
                      "class_name": "Zeros",
                      "config": {},
                      "registered_name": null
                    },
                    "moving_variance_initializer": {
                      "module": "keras.initializers",
                      "class_name": "Ones",
                      "config": {},
                      "registered_name": null
                    },
                    "beta_regularizer": null,
                    "gamma_regularizer": null,
                    "beta_constraint": null,
                    "gamma_constraint": null,
                    "synchronized": false
                  },
                  "name": "conv2_block1_preact_bn",
                  "inbound_nodes": [
                    {
                      "args": [
                        {
                          "class_name": "__keras_tensor__",
                          "config": {
                            "shape": [null, 44, 52, 64],
                            "dtype": "float32",
                            "keras_history": ["pool1_pool", 0, 0]
                          }
                        }
                      ],
                      "kwargs": { "mask": null }
                    }
                  ]
                },
                {
                  "class_name": "Activation",
                  "config": {
                    "name": "conv2_block1_preact_relu",
                    "trainable": false,
                    "dtype": "float32",
                    "activation": "relu"
                  },
                  "name": "conv2_block1_preact_relu",
                  "inbound_nodes": [
                    {
                      "args": [
                        {
                          "class_name": "__keras_tensor__",
                          "config": {
                            "shape": [null, 44, 52, 64],
                            "dtype": "float32",
                            "keras_history": ["conv2_block1_preact_bn", 0, 0]
                          }
                        }
                      ],
                      "kwargs": {}
                    }
                  ]
                },
                {
                  "class_name": "Conv2D",
                  "config": {
                    "name": "conv2_block1_1_conv",
                    "trainable": false,
                    "dtype": "float32",
                    "filters": 64,
                    "kernel_size": [1, 1],
                    "strides": [1, 1],
                    "padding": "valid",
                    "data_format": "channels_last",
                    "dilation_rate": [1, 1],
                    "groups": 1,
                    "activation": "linear",
                    "use_bias": false,
                    "kernel_initializer": {
                      "module": "keras.initializers",
                      "class_name": "GlorotUniform",
                      "config": { "seed": null },
                      "registered_name": null
                    },
                    "bias_initializer": {
                      "module": "keras.initializers",
                      "class_name": "Zeros",
                      "config": {},
                      "registered_name": null
                    },
                    "kernel_regularizer": null,
                    "bias_regularizer": null,
                    "activity_regularizer": null,
                    "kernel_constraint": null,
                    "bias_constraint": null
                  },
                  "name": "conv2_block1_1_conv",
                  "inbound_nodes": [
                    {
                      "args": [
                        {
                          "class_name": "__keras_tensor__",
                          "config": {
                            "shape": [null, 44, 52, 64],
                            "dtype": "float32",
                            "keras_history": ["conv2_block1_preact_relu", 0, 0]
                          }
                        }
                      ],
                      "kwargs": {}
                    }
                  ]
                },
                {
                  "class_name": "BatchNormalization",
                  "config": {
                    "name": "conv2_block1_1_bn",
                    "trainable": false,
                    "dtype": "float32",
                    "axis": 3,
                    "momentum": 0.99,
                    "epsilon": 1.001e-5,
                    "center": true,
                    "scale": true,
                    "beta_initializer": {
                      "module": "keras.initializers",
                      "class_name": "Zeros",
                      "config": {},
                      "registered_name": null
                    },
                    "gamma_initializer": {
                      "module": "keras.initializers",
                      "class_name": "Ones",
                      "config": {},
                      "registered_name": null
                    },
                    "moving_mean_initializer": {
                      "module": "keras.initializers",
                      "class_name": "Zeros",
                      "config": {},
                      "registered_name": null
                    },
                    "moving_variance_initializer": {
                      "module": "keras.initializers",
                      "class_name": "Ones",
                      "config": {},
                      "registered_name": null
                    },
                    "beta_regularizer": null,
                    "gamma_regularizer": null,
                    "beta_constraint": null,
                    "gamma_constraint": null,
                    "synchronized": false
                  },
                  "name": "conv2_block1_1_bn",
                  "inbound_nodes": [
                    {
                      "args": [
                        {
                          "class_name": "__keras_tensor__",
                          "config": {
                            "shape": [null, 44, 52, 64],
                            "dtype": "float32",
                            "keras_history": ["conv2_block1_1_conv", 0, 0]
                          }
                        }
                      ],
                      "kwargs": { "mask": null }
                    }
                  ]
                },
                {
                  "class_name": "Activation",
                  "config": {
                    "name": "conv2_block1_1_relu",
                    "trainable": false,
                    "dtype": "float32",
                    "activation": "relu"
                  },
                  "name": "conv2_block1_1_relu",
                  "inbound_nodes": [
                    {
                      "args": [
                        {
                          "class_name": "__keras_tensor__",
                          "config": {
                            "shape": [null, 44, 52, 64],
                            "dtype": "float32",
                            "keras_history": ["conv2_block1_1_bn", 0, 0]
                          }
                        }
                      ],
                      "kwargs": {}
                    }
                  ]
                },
                {
                  "class_name": "ZeroPadding2D",
                  "config": {
                    "name": "conv2_block1_2_pad",
                    "trainable": false,
                    "dtype": "float32",
                    "padding": [
                      [1, 1],
                      [1, 1]
                    ],
                    "data_format": "channels_last"
                  },
                  "name": "conv2_block1_2_pad",
                  "inbound_nodes": [
                    {
                      "args": [
                        {
                          "class_name": "__keras_tensor__",
                          "config": {
                            "shape": [null, 44, 52, 64],
                            "dtype": "float32",
                            "keras_history": ["conv2_block1_1_relu", 0, 0]
                          }
                        }
                      ],
                      "kwargs": {}
                    }
                  ]
                },
                {
                  "class_name": "Conv2D",
                  "config": {
                    "name": "conv2_block1_2_conv",
                    "trainable": false,
                    "dtype": "float32",
                    "filters": 64,
                    "kernel_size": [3, 3],
                    "strides": [1, 1],
                    "padding": "valid",
                    "data_format": "channels_last",
                    "dilation_rate": [1, 1],
                    "groups": 1,
                    "activation": "linear",
                    "use_bias": false,
                    "kernel_initializer": {
                      "module": "keras.initializers",
                      "class_name": "GlorotUniform",
                      "config": { "seed": null },
                      "registered_name": null
                    },
                    "bias_initializer": {
                      "module": "keras.initializers",
                      "class_name": "Zeros",
                      "config": {},
                      "registered_name": null
                    },
                    "kernel_regularizer": null,
                    "bias_regularizer": null,
                    "activity_regularizer": null,
                    "kernel_constraint": null,
                    "bias_constraint": null
                  },
                  "name": "conv2_block1_2_conv",
                  "inbound_nodes": [
                    {
                      "args": [
                        {
                          "class_name": "__keras_tensor__",
                          "config": {
                            "shape": [null, 46, 54, 64],
                            "dtype": "float32",
                            "keras_history": ["conv2_block1_2_pad", 0, 0]
                          }
                        }
                      ],
                      "kwargs": {}
                    }
                  ]
                },
                {
                  "class_name": "BatchNormalization",
                  "config": {
                    "name": "conv2_block1_2_bn",
                    "trainable": false,
                    "dtype": "float32",
                    "axis": 3,
                    "momentum": 0.99,
                    "epsilon": 1.001e-5,
                    "center": true,
                    "scale": true,
                    "beta_initializer": {
                      "module": "keras.initializers",
                      "class_name": "Zeros",
                      "config": {},
                      "registered_name": null
                    },
                    "gamma_initializer": {
                      "module": "keras.initializers",
                      "class_name": "Ones",
                      "config": {},
                      "registered_name": null
                    },
                    "moving_mean_initializer": {
                      "module": "keras.initializers",
                      "class_name": "Zeros",
                      "config": {},
                      "registered_name": null
                    },
                    "moving_variance_initializer": {
                      "module": "keras.initializers",
                      "class_name": "Ones",
                      "config": {},
                      "registered_name": null
                    },
                    "beta_regularizer": null,
                    "gamma_regularizer": null,
                    "beta_constraint": null,
                    "gamma_constraint": null,
                    "synchronized": false
                  },
                  "name": "conv2_block1_2_bn",
                  "inbound_nodes": [
                    {
                      "args": [
                        {
                          "class_name": "__keras_tensor__",
                          "config": {
                            "shape": [null, 44, 52, 64],
                            "dtype": "float32",
                            "keras_history": ["conv2_block1_2_conv", 0, 0]
                          }
                        }
                      ],
                      "kwargs": { "mask": null }
                    }
                  ]
                },
                {
                  "class_name": "Activation",
                  "config": {
                    "name": "conv2_block1_2_relu",
                    "trainable": false,
                    "dtype": "float32",
                    "activation": "relu"
                  },
                  "name": "conv2_block1_2_relu",
                  "inbound_nodes": [
                    {
                      "args": [
                        {
                          "class_name": "__keras_tensor__",
                          "config": {
                            "shape": [null, 44, 52, 64],
                            "dtype": "float32",
                            "keras_history": ["conv2_block1_2_bn", 0, 0]
                          }
                        }
                      ],
                      "kwargs": {}
                    }
                  ]
                },
                {
                  "class_name": "Conv2D",
                  "config": {
                    "name": "conv2_block1_0_conv",
                    "trainable": false,
                    "dtype": "float32",
                    "filters": 256,
                    "kernel_size": [1, 1],
                    "strides": [1, 1],
                    "padding": "valid",
                    "data_format": "channels_last",
                    "dilation_rate": [1, 1],
                    "groups": 1,
                    "activation": "linear",
                    "use_bias": true,
                    "kernel_initializer": {
                      "module": "keras.initializers",
                      "class_name": "GlorotUniform",
                      "config": { "seed": null },
                      "registered_name": null
                    },
                    "bias_initializer": {
                      "module": "keras.initializers",
                      "class_name": "Zeros",
                      "config": {},
                      "registered_name": null
                    },
                    "kernel_regularizer": null,
                    "bias_regularizer": null,
                    "activity_regularizer": null,
                    "kernel_constraint": null,
                    "bias_constraint": null
                  },
                  "name": "conv2_block1_0_conv",
                  "inbound_nodes": [
                    {
                      "args": [
                        {
                          "class_name": "__keras_tensor__",
                          "config": {
                            "shape": [null, 44, 52, 64],
                            "dtype": "float32",
                            "keras_history": ["conv2_block1_preact_relu", 0, 0]
                          }
                        }
                      ],
                      "kwargs": {}
                    }
                  ]
                },
                {
                  "class_name": "Conv2D",
                  "config": {
                    "name": "conv2_block1_3_conv",
                    "trainable": false,
                    "dtype": "float32",
                    "filters": 256,
                    "kernel_size": [1, 1],
                    "strides": [1, 1],
                    "padding": "valid",
                    "data_format": "channels_last",
                    "dilation_rate": [1, 1],
                    "groups": 1,
                    "activation": "linear",
                    "use_bias": true,
                    "kernel_initializer": {
                      "module": "keras.initializers",
                      "class_name": "GlorotUniform",
                      "config": { "seed": null },
                      "registered_name": null
                    },
                    "bias_initializer": {
                      "module": "keras.initializers",
                      "class_name": "Zeros",
                      "config": {},
                      "registered_name": null
                    },
                    "kernel_regularizer": null,
                    "bias_regularizer": null,
                    "activity_regularizer": null,
                    "kernel_constraint": null,
                    "bias_constraint": null
                  },
                  "name": "conv2_block1_3_conv",
                  "inbound_nodes": [
                    {
                      "args": [
                        {
                          "class_name": "__keras_tensor__",
                          "config": {
                            "shape": [null, 44, 52, 64],
                            "dtype": "float32",
                            "keras_history": ["conv2_block1_2_relu", 0, 0]
                          }
                        }
                      ],
                      "kwargs": {}
                    }
                  ]
                },
                {
                  "class_name": "Add",
                  "config": {
                    "name": "conv2_block1_out",
                    "trainable": false,
                    "dtype": "float32"
                  },
                  "name": "conv2_block1_out",
                  "inbound_nodes": [
                    {
                      "args": [
                        [
                          {
                            "class_name": "__keras_tensor__",
                            "config": {
                              "shape": [null, 44, 52, 256],
                              "dtype": "float32",
                              "keras_history": ["conv2_block1_0_conv", 0, 0]
                            }
                          },
                          {
                            "class_name": "__keras_tensor__",
                            "config": {
                              "shape": [null, 44, 52, 256],
                              "dtype": "float32",
                              "keras_history": ["conv2_block1_3_conv", 0, 0]
                            }
                          }
                        ]
                      ],
                      "kwargs": {}
                    }
                  ]
                },
                {
                  "class_name": "BatchNormalization",
                  "config": {
                    "name": "conv2_block2_preact_bn",
                    "trainable": false,
                    "dtype": "float32",
                    "axis": 3,
                    "momentum": 0.99,
                    "epsilon": 1.001e-5,
                    "center": true,
                    "scale": true,
                    "beta_initializer": {
                      "module": "keras.initializers",
                      "class_name": "Zeros",
                      "config": {},
                      "registered_name": null
                    },
                    "gamma_initializer": {
                      "module": "keras.initializers",
                      "class_name": "Ones",
                      "config": {},
                      "registered_name": null
                    },
                    "moving_mean_initializer": {
                      "module": "keras.initializers",
                      "class_name": "Zeros",
                      "config": {},
                      "registered_name": null
                    },
                    "moving_variance_initializer": {
                      "module": "keras.initializers",
                      "class_name": "Ones",
                      "config": {},
                      "registered_name": null
                    },
                    "beta_regularizer": null,
                    "gamma_regularizer": null,
                    "beta_constraint": null,
                    "gamma_constraint": null,
                    "synchronized": false
                  },
                  "name": "conv2_block2_preact_bn",
                  "inbound_nodes": [
                    {
                      "args": [
                        {
                          "class_name": "__keras_tensor__",
                          "config": {
                            "shape": [null, 44, 52, 256],
                            "dtype": "float32",
                            "keras_history": ["conv2_block1_out", 0, 0]
                          }
                        }
                      ],
                      "kwargs": { "mask": null }
                    }
                  ]
                },
                {
                  "class_name": "Activation",
                  "config": {
                    "name": "conv2_block2_preact_relu",
                    "trainable": false,
                    "dtype": "float32",
                    "activation": "relu"
                  },
                  "name": "conv2_block2_preact_relu",
                  "inbound_nodes": [
                    {
                      "args": [
                        {
                          "class_name": "__keras_tensor__",
                          "config": {
                            "shape": [null, 44, 52, 256],
                            "dtype": "float32",
                            "keras_history": ["conv2_block2_preact_bn", 0, 0]
                          }
                        }
                      ],
                      "kwargs": {}
                    }
                  ]
                },
                {
                  "class_name": "Conv2D",
                  "config": {
                    "name": "conv2_block2_1_conv",
                    "trainable": false,
                    "dtype": "float32",
                    "filters": 64,
                    "kernel_size": [1, 1],
                    "strides": [1, 1],
                    "padding": "valid",
                    "data_format": "channels_last",
                    "dilation_rate": [1, 1],
                    "groups": 1,
                    "activation": "linear",
                    "use_bias": false,
                    "kernel_initializer": {
                      "module": "keras.initializers",
                      "class_name": "GlorotUniform",
                      "config": { "seed": null },
                      "registered_name": null
                    },
                    "bias_initializer": {
                      "module": "keras.initializers",
                      "class_name": "Zeros",
                      "config": {},
                      "registered_name": null
                    },
                    "kernel_regularizer": null,
                    "bias_regularizer": null,
                    "activity_regularizer": null,
                    "kernel_constraint": null,
                    "bias_constraint": null
                  },
                  "name": "conv2_block2_1_conv",
                  "inbound_nodes": [
                    {
                      "args": [
                        {
                          "class_name": "__keras_tensor__",
                          "config": {
                            "shape": [null, 44, 52, 256],
                            "dtype": "float32",
                            "keras_history": ["conv2_block2_preact_relu", 0, 0]
                          }
                        }
                      ],
                      "kwargs": {}
                    }
                  ]
                },
                {
                  "class_name": "BatchNormalization",
                  "config": {
                    "name": "conv2_block2_1_bn",
                    "trainable": false,
                    "dtype": "float32",
                    "axis": 3,
                    "momentum": 0.99,
                    "epsilon": 1.001e-5,
                    "center": true,
                    "scale": true,
                    "beta_initializer": {
                      "module": "keras.initializers",
                      "class_name": "Zeros",
                      "config": {},
                      "registered_name": null
                    },
                    "gamma_initializer": {
                      "module": "keras.initializers",
                      "class_name": "Ones",
                      "config": {},
                      "registered_name": null
                    },
                    "moving_mean_initializer": {
                      "module": "keras.initializers",
                      "class_name": "Zeros",
                      "config": {},
                      "registered_name": null
                    },
                    "moving_variance_initializer": {
                      "module": "keras.initializers",
                      "class_name": "Ones",
                      "config": {},
                      "registered_name": null
                    },
                    "beta_regularizer": null,
                    "gamma_regularizer": null,
                    "beta_constraint": null,
                    "gamma_constraint": null,
                    "synchronized": false
                  },
                  "name": "conv2_block2_1_bn",
                  "inbound_nodes": [
                    {
                      "args": [
                        {
                          "class_name": "__keras_tensor__",
                          "config": {
                            "shape": [null, 44, 52, 64],
                            "dtype": "float32",
                            "keras_history": ["conv2_block2_1_conv", 0, 0]
                          }
                        }
                      ],
                      "kwargs": { "mask": null }
                    }
                  ]
                },
                {
                  "class_name": "Activation",
                  "config": {
                    "name": "conv2_block2_1_relu",
                    "trainable": false,
                    "dtype": "float32",
                    "activation": "relu"
                  },
                  "name": "conv2_block2_1_relu",
                  "inbound_nodes": [
                    {
                      "args": [
                        {
                          "class_name": "__keras_tensor__",
                          "config": {
                            "shape": [null, 44, 52, 64],
                            "dtype": "float32",
                            "keras_history": ["conv2_block2_1_bn", 0, 0]
                          }
                        }
                      ],
                      "kwargs": {}
                    }
                  ]
                },
                {
                  "class_name": "ZeroPadding2D",
                  "config": {
                    "name": "conv2_block2_2_pad",
                    "trainable": false,
                    "dtype": "float32",
                    "padding": [
                      [1, 1],
                      [1, 1]
                    ],
                    "data_format": "channels_last"
                  },
                  "name": "conv2_block2_2_pad",
                  "inbound_nodes": [
                    {
                      "args": [
                        {
                          "class_name": "__keras_tensor__",
                          "config": {
                            "shape": [null, 44, 52, 64],
                            "dtype": "float32",
                            "keras_history": ["conv2_block2_1_relu", 0, 0]
                          }
                        }
                      ],
                      "kwargs": {}
                    }
                  ]
                },
                {
                  "class_name": "Conv2D",
                  "config": {
                    "name": "conv2_block2_2_conv",
                    "trainable": false,
                    "dtype": "float32",
                    "filters": 64,
                    "kernel_size": [3, 3],
                    "strides": [1, 1],
                    "padding": "valid",
                    "data_format": "channels_last",
                    "dilation_rate": [1, 1],
                    "groups": 1,
                    "activation": "linear",
                    "use_bias": false,
                    "kernel_initializer": {
                      "module": "keras.initializers",
                      "class_name": "GlorotUniform",
                      "config": { "seed": null },
                      "registered_name": null
                    },
                    "bias_initializer": {
                      "module": "keras.initializers",
                      "class_name": "Zeros",
                      "config": {},
                      "registered_name": null
                    },
                    "kernel_regularizer": null,
                    "bias_regularizer": null,
                    "activity_regularizer": null,
                    "kernel_constraint": null,
                    "bias_constraint": null
                  },
                  "name": "conv2_block2_2_conv",
                  "inbound_nodes": [
                    {
                      "args": [
                        {
                          "class_name": "__keras_tensor__",
                          "config": {
                            "shape": [null, 46, 54, 64],
                            "dtype": "float32",
                            "keras_history": ["conv2_block2_2_pad", 0, 0]
                          }
                        }
                      ],
                      "kwargs": {}
                    }
                  ]
                },
                {
                  "class_name": "BatchNormalization",
                  "config": {
                    "name": "conv2_block2_2_bn",
                    "trainable": false,
                    "dtype": "float32",
                    "axis": 3,
                    "momentum": 0.99,
                    "epsilon": 1.001e-5,
                    "center": true,
                    "scale": true,
                    "beta_initializer": {
                      "module": "keras.initializers",
                      "class_name": "Zeros",
                      "config": {},
                      "registered_name": null
                    },
                    "gamma_initializer": {
                      "module": "keras.initializers",
                      "class_name": "Ones",
                      "config": {},
                      "registered_name": null
                    },
                    "moving_mean_initializer": {
                      "module": "keras.initializers",
                      "class_name": "Zeros",
                      "config": {},
                      "registered_name": null
                    },
                    "moving_variance_initializer": {
                      "module": "keras.initializers",
                      "class_name": "Ones",
                      "config": {},
                      "registered_name": null
                    },
                    "beta_regularizer": null,
                    "gamma_regularizer": null,
                    "beta_constraint": null,
                    "gamma_constraint": null,
                    "synchronized": false
                  },
                  "name": "conv2_block2_2_bn",
                  "inbound_nodes": [
                    {
                      "args": [
                        {
                          "class_name": "__keras_tensor__",
                          "config": {
                            "shape": [null, 44, 52, 64],
                            "dtype": "float32",
                            "keras_history": ["conv2_block2_2_conv", 0, 0]
                          }
                        }
                      ],
                      "kwargs": { "mask": null }
                    }
                  ]
                },
                {
                  "class_name": "Activation",
                  "config": {
                    "name": "conv2_block2_2_relu",
                    "trainable": false,
                    "dtype": "float32",
                    "activation": "relu"
                  },
                  "name": "conv2_block2_2_relu",
                  "inbound_nodes": [
                    {
                      "args": [
                        {
                          "class_name": "__keras_tensor__",
                          "config": {
                            "shape": [null, 44, 52, 64],
                            "dtype": "float32",
                            "keras_history": ["conv2_block2_2_bn", 0, 0]
                          }
                        }
                      ],
                      "kwargs": {}
                    }
                  ]
                },
                {
                  "class_name": "Conv2D",
                  "config": {
                    "name": "conv2_block2_3_conv",
                    "trainable": false,
                    "dtype": "float32",
                    "filters": 256,
                    "kernel_size": [1, 1],
                    "strides": [1, 1],
                    "padding": "valid",
                    "data_format": "channels_last",
                    "dilation_rate": [1, 1],
                    "groups": 1,
                    "activation": "linear",
                    "use_bias": true,
                    "kernel_initializer": {
                      "module": "keras.initializers",
                      "class_name": "GlorotUniform",
                      "config": { "seed": null },
                      "registered_name": null
                    },
                    "bias_initializer": {
                      "module": "keras.initializers",
                      "class_name": "Zeros",
                      "config": {},
                      "registered_name": null
                    },
                    "kernel_regularizer": null,
                    "bias_regularizer": null,
                    "activity_regularizer": null,
                    "kernel_constraint": null,
                    "bias_constraint": null
                  },
                  "name": "conv2_block2_3_conv",
                  "inbound_nodes": [
                    {
                      "args": [
                        {
                          "class_name": "__keras_tensor__",
                          "config": {
                            "shape": [null, 44, 52, 64],
                            "dtype": "float32",
                            "keras_history": ["conv2_block2_2_relu", 0, 0]
                          }
                        }
                      ],
                      "kwargs": {}
                    }
                  ]
                },
                {
                  "class_name": "Add",
                  "config": {
                    "name": "conv2_block2_out",
                    "trainable": false,
                    "dtype": "float32"
                  },
                  "name": "conv2_block2_out",
                  "inbound_nodes": [
                    {
                      "args": [
                        [
                          {
                            "class_name": "__keras_tensor__",
                            "config": {
                              "shape": [null, 44, 52, 256],
                              "dtype": "float32",
                              "keras_history": ["conv2_block1_out", 0, 0]
                            }
                          },
                          {
                            "class_name": "__keras_tensor__",
                            "config": {
                              "shape": [null, 44, 52, 256],
                              "dtype": "float32",
                              "keras_history": ["conv2_block2_3_conv", 0, 0]
                            }
                          }
                        ]
                      ],
                      "kwargs": {}
                    }
                  ]
                },
                {
                  "class_name": "BatchNormalization",
                  "config": {
                    "name": "conv2_block3_preact_bn",
                    "trainable": false,
                    "dtype": "float32",
                    "axis": 3,
                    "momentum": 0.99,
                    "epsilon": 1.001e-5,
                    "center": true,
                    "scale": true,
                    "beta_initializer": {
                      "module": "keras.initializers",
                      "class_name": "Zeros",
                      "config": {},
                      "registered_name": null
                    },
                    "gamma_initializer": {
                      "module": "keras.initializers",
                      "class_name": "Ones",
                      "config": {},
                      "registered_name": null
                    },
                    "moving_mean_initializer": {
                      "module": "keras.initializers",
                      "class_name": "Zeros",
                      "config": {},
                      "registered_name": null
                    },
                    "moving_variance_initializer": {
                      "module": "keras.initializers",
                      "class_name": "Ones",
                      "config": {},
                      "registered_name": null
                    },
                    "beta_regularizer": null,
                    "gamma_regularizer": null,
                    "beta_constraint": null,
                    "gamma_constraint": null,
                    "synchronized": false
                  },
                  "name": "conv2_block3_preact_bn",
                  "inbound_nodes": [
                    {
                      "args": [
                        {
                          "class_name": "__keras_tensor__",
                          "config": {
                            "shape": [null, 44, 52, 256],
                            "dtype": "float32",
                            "keras_history": ["conv2_block2_out", 0, 0]
                          }
                        }
                      ],
                      "kwargs": { "mask": null }
                    }
                  ]
                },
                {
                  "class_name": "Activation",
                  "config": {
                    "name": "conv2_block3_preact_relu",
                    "trainable": false,
                    "dtype": "float32",
                    "activation": "relu"
                  },
                  "name": "conv2_block3_preact_relu",
                  "inbound_nodes": [
                    {
                      "args": [
                        {
                          "class_name": "__keras_tensor__",
                          "config": {
                            "shape": [null, 44, 52, 256],
                            "dtype": "float32",
                            "keras_history": ["conv2_block3_preact_bn", 0, 0]
                          }
                        }
                      ],
                      "kwargs": {}
                    }
                  ]
                },
                {
                  "class_name": "Conv2D",
                  "config": {
                    "name": "conv2_block3_1_conv",
                    "trainable": false,
                    "dtype": "float32",
                    "filters": 64,
                    "kernel_size": [1, 1],
                    "strides": [1, 1],
                    "padding": "valid",
                    "data_format": "channels_last",
                    "dilation_rate": [1, 1],
                    "groups": 1,
                    "activation": "linear",
                    "use_bias": false,
                    "kernel_initializer": {
                      "module": "keras.initializers",
                      "class_name": "GlorotUniform",
                      "config": { "seed": null },
                      "registered_name": null
                    },
                    "bias_initializer": {
                      "module": "keras.initializers",
                      "class_name": "Zeros",
                      "config": {},
                      "registered_name": null
                    },
                    "kernel_regularizer": null,
                    "bias_regularizer": null,
                    "activity_regularizer": null,
                    "kernel_constraint": null,
                    "bias_constraint": null
                  },
                  "name": "conv2_block3_1_conv",
                  "inbound_nodes": [
                    {
                      "args": [
                        {
                          "class_name": "__keras_tensor__",
                          "config": {
                            "shape": [null, 44, 52, 256],
                            "dtype": "float32",
                            "keras_history": ["conv2_block3_preact_relu", 0, 0]
                          }
                        }
                      ],
                      "kwargs": {}
                    }
                  ]
                },
                {
                  "class_name": "BatchNormalization",
                  "config": {
                    "name": "conv2_block3_1_bn",
                    "trainable": false,
                    "dtype": "float32",
                    "axis": 3,
                    "momentum": 0.99,
                    "epsilon": 1.001e-5,
                    "center": true,
                    "scale": true,
                    "beta_initializer": {
                      "module": "keras.initializers",
                      "class_name": "Zeros",
                      "config": {},
                      "registered_name": null
                    },
                    "gamma_initializer": {
                      "module": "keras.initializers",
                      "class_name": "Ones",
                      "config": {},
                      "registered_name": null
                    },
                    "moving_mean_initializer": {
                      "module": "keras.initializers",
                      "class_name": "Zeros",
                      "config": {},
                      "registered_name": null
                    },
                    "moving_variance_initializer": {
                      "module": "keras.initializers",
                      "class_name": "Ones",
                      "config": {},
                      "registered_name": null
                    },
                    "beta_regularizer": null,
                    "gamma_regularizer": null,
                    "beta_constraint": null,
                    "gamma_constraint": null,
                    "synchronized": false
                  },
                  "name": "conv2_block3_1_bn",
                  "inbound_nodes": [
                    {
                      "args": [
                        {
                          "class_name": "__keras_tensor__",
                          "config": {
                            "shape": [null, 44, 52, 64],
                            "dtype": "float32",
                            "keras_history": ["conv2_block3_1_conv", 0, 0]
                          }
                        }
                      ],
                      "kwargs": { "mask": null }
                    }
                  ]
                },
                {
                  "class_name": "Activation",
                  "config": {
                    "name": "conv2_block3_1_relu",
                    "trainable": false,
                    "dtype": "float32",
                    "activation": "relu"
                  },
                  "name": "conv2_block3_1_relu",
                  "inbound_nodes": [
                    {
                      "args": [
                        {
                          "class_name": "__keras_tensor__",
                          "config": {
                            "shape": [null, 44, 52, 64],
                            "dtype": "float32",
                            "keras_history": ["conv2_block3_1_bn", 0, 0]
                          }
                        }
                      ],
                      "kwargs": {}
                    }
                  ]
                },
                {
                  "class_name": "ZeroPadding2D",
                  "config": {
                    "name": "conv2_block3_2_pad",
                    "trainable": false,
                    "dtype": "float32",
                    "padding": [
                      [1, 1],
                      [1, 1]
                    ],
                    "data_format": "channels_last"
                  },
                  "name": "conv2_block3_2_pad",
                  "inbound_nodes": [
                    {
                      "args": [
                        {
                          "class_name": "__keras_tensor__",
                          "config": {
                            "shape": [null, 44, 52, 64],
                            "dtype": "float32",
                            "keras_history": ["conv2_block3_1_relu", 0, 0]
                          }
                        }
                      ],
                      "kwargs": {}
                    }
                  ]
                },
                {
                  "class_name": "Conv2D",
                  "config": {
                    "name": "conv2_block3_2_conv",
                    "trainable": false,
                    "dtype": "float32",
                    "filters": 64,
                    "kernel_size": [3, 3],
                    "strides": [2, 2],
                    "padding": "valid",
                    "data_format": "channels_last",
                    "dilation_rate": [1, 1],
                    "groups": 1,
                    "activation": "linear",
                    "use_bias": false,
                    "kernel_initializer": {
                      "module": "keras.initializers",
                      "class_name": "GlorotUniform",
                      "config": { "seed": null },
                      "registered_name": null
                    },
                    "bias_initializer": {
                      "module": "keras.initializers",
                      "class_name": "Zeros",
                      "config": {},
                      "registered_name": null
                    },
                    "kernel_regularizer": null,
                    "bias_regularizer": null,
                    "activity_regularizer": null,
                    "kernel_constraint": null,
                    "bias_constraint": null
                  },
                  "name": "conv2_block3_2_conv",
                  "inbound_nodes": [
                    {
                      "args": [
                        {
                          "class_name": "__keras_tensor__",
                          "config": {
                            "shape": [null, 46, 54, 64],
                            "dtype": "float32",
                            "keras_history": ["conv2_block3_2_pad", 0, 0]
                          }
                        }
                      ],
                      "kwargs": {}
                    }
                  ]
                },
                {
                  "class_name": "BatchNormalization",
                  "config": {
                    "name": "conv2_block3_2_bn",
                    "trainable": false,
                    "dtype": "float32",
                    "axis": 3,
                    "momentum": 0.99,
                    "epsilon": 1.001e-5,
                    "center": true,
                    "scale": true,
                    "beta_initializer": {
                      "module": "keras.initializers",
                      "class_name": "Zeros",
                      "config": {},
                      "registered_name": null
                    },
                    "gamma_initializer": {
                      "module": "keras.initializers",
                      "class_name": "Ones",
                      "config": {},
                      "registered_name": null
                    },
                    "moving_mean_initializer": {
                      "module": "keras.initializers",
                      "class_name": "Zeros",
                      "config": {},
                      "registered_name": null
                    },
                    "moving_variance_initializer": {
                      "module": "keras.initializers",
                      "class_name": "Ones",
                      "config": {},
                      "registered_name": null
                    },
                    "beta_regularizer": null,
                    "gamma_regularizer": null,
                    "beta_constraint": null,
                    "gamma_constraint": null,
                    "synchronized": false
                  },
                  "name": "conv2_block3_2_bn",
                  "inbound_nodes": [
                    {
                      "args": [
                        {
                          "class_name": "__keras_tensor__",
                          "config": {
                            "shape": [null, 22, 26, 64],
                            "dtype": "float32",
                            "keras_history": ["conv2_block3_2_conv", 0, 0]
                          }
                        }
                      ],
                      "kwargs": { "mask": null }
                    }
                  ]
                },
                {
                  "class_name": "Activation",
                  "config": {
                    "name": "conv2_block3_2_relu",
                    "trainable": false,
                    "dtype": "float32",
                    "activation": "relu"
                  },
                  "name": "conv2_block3_2_relu",
                  "inbound_nodes": [
                    {
                      "args": [
                        {
                          "class_name": "__keras_tensor__",
                          "config": {
                            "shape": [null, 22, 26, 64],
                            "dtype": "float32",
                            "keras_history": ["conv2_block3_2_bn", 0, 0]
                          }
                        }
                      ],
                      "kwargs": {}
                    }
                  ]
                },
                {
                  "class_name": "MaxPooling2D",
                  "config": {
                    "name": "max_pooling2d",
                    "trainable": false,
                    "dtype": "float32",
                    "pool_size": [1, 1],
                    "padding": "valid",
                    "strides": [2, 2],
                    "data_format": "channels_last"
                  },
                  "name": "max_pooling2d",
                  "inbound_nodes": [
                    {
                      "args": [
                        {
                          "class_name": "__keras_tensor__",
                          "config": {
                            "shape": [null, 44, 52, 256],
                            "dtype": "float32",
                            "keras_history": ["conv2_block2_out", 0, 0]
                          }
                        }
                      ],
                      "kwargs": {}
                    }
                  ]
                },
                {
                  "class_name": "Conv2D",
                  "config": {
                    "name": "conv2_block3_3_conv",
                    "trainable": false,
                    "dtype": "float32",
                    "filters": 256,
                    "kernel_size": [1, 1],
                    "strides": [1, 1],
                    "padding": "valid",
                    "data_format": "channels_last",
                    "dilation_rate": [1, 1],
                    "groups": 1,
                    "activation": "linear",
                    "use_bias": true,
                    "kernel_initializer": {
                      "module": "keras.initializers",
                      "class_name": "GlorotUniform",
                      "config": { "seed": null },
                      "registered_name": null
                    },
                    "bias_initializer": {
                      "module": "keras.initializers",
                      "class_name": "Zeros",
                      "config": {},
                      "registered_name": null
                    },
                    "kernel_regularizer": null,
                    "bias_regularizer": null,
                    "activity_regularizer": null,
                    "kernel_constraint": null,
                    "bias_constraint": null
                  },
                  "name": "conv2_block3_3_conv",
                  "inbound_nodes": [
                    {
                      "args": [
                        {
                          "class_name": "__keras_tensor__",
                          "config": {
                            "shape": [null, 22, 26, 64],
                            "dtype": "float32",
                            "keras_history": ["conv2_block3_2_relu", 0, 0]
                          }
                        }
                      ],
                      "kwargs": {}
                    }
                  ]
                },
                {
                  "class_name": "Add",
                  "config": {
                    "name": "conv2_block3_out",
                    "trainable": false,
                    "dtype": "float32"
                  },
                  "name": "conv2_block3_out",
                  "inbound_nodes": [
                    {
                      "args": [
                        [
                          {
                            "class_name": "__keras_tensor__",
                            "config": {
                              "shape": [null, 22, 26, 256],
                              "dtype": "float32",
                              "keras_history": ["max_pooling2d", 0, 0]
                            }
                          },
                          {
                            "class_name": "__keras_tensor__",
                            "config": {
                              "shape": [null, 22, 26, 256],
                              "dtype": "float32",
                              "keras_history": ["conv2_block3_3_conv", 0, 0]
                            }
                          }
                        ]
                      ],
                      "kwargs": {}
                    }
                  ]
                },
                {
                  "class_name": "BatchNormalization",
                  "config": {
                    "name": "conv3_block1_preact_bn",
                    "trainable": false,
                    "dtype": "float32",
                    "axis": 3,
                    "momentum": 0.99,
                    "epsilon": 1.001e-5,
                    "center": true,
                    "scale": true,
                    "beta_initializer": {
                      "module": "keras.initializers",
                      "class_name": "Zeros",
                      "config": {},
                      "registered_name": null
                    },
                    "gamma_initializer": {
                      "module": "keras.initializers",
                      "class_name": "Ones",
                      "config": {},
                      "registered_name": null
                    },
                    "moving_mean_initializer": {
                      "module": "keras.initializers",
                      "class_name": "Zeros",
                      "config": {},
                      "registered_name": null
                    },
                    "moving_variance_initializer": {
                      "module": "keras.initializers",
                      "class_name": "Ones",
                      "config": {},
                      "registered_name": null
                    },
                    "beta_regularizer": null,
                    "gamma_regularizer": null,
                    "beta_constraint": null,
                    "gamma_constraint": null,
                    "synchronized": false
                  },
                  "name": "conv3_block1_preact_bn",
                  "inbound_nodes": [
                    {
                      "args": [
                        {
                          "class_name": "__keras_tensor__",
                          "config": {
                            "shape": [null, 22, 26, 256],
                            "dtype": "float32",
                            "keras_history": ["conv2_block3_out", 0, 0]
                          }
                        }
                      ],
                      "kwargs": { "mask": null }
                    }
                  ]
                },
                {
                  "class_name": "Activation",
                  "config": {
                    "name": "conv3_block1_preact_relu",
                    "trainable": false,
                    "dtype": "float32",
                    "activation": "relu"
                  },
                  "name": "conv3_block1_preact_relu",
                  "inbound_nodes": [
                    {
                      "args": [
                        {
                          "class_name": "__keras_tensor__",
                          "config": {
                            "shape": [null, 22, 26, 256],
                            "dtype": "float32",
                            "keras_history": ["conv3_block1_preact_bn", 0, 0]
                          }
                        }
                      ],
                      "kwargs": {}
                    }
                  ]
                },
                {
                  "class_name": "Conv2D",
                  "config": {
                    "name": "conv3_block1_1_conv",
                    "trainable": false,
                    "dtype": "float32",
                    "filters": 128,
                    "kernel_size": [1, 1],
                    "strides": [1, 1],
                    "padding": "valid",
                    "data_format": "channels_last",
                    "dilation_rate": [1, 1],
                    "groups": 1,
                    "activation": "linear",
                    "use_bias": false,
                    "kernel_initializer": {
                      "module": "keras.initializers",
                      "class_name": "GlorotUniform",
                      "config": { "seed": null },
                      "registered_name": null
                    },
                    "bias_initializer": {
                      "module": "keras.initializers",
                      "class_name": "Zeros",
                      "config": {},
                      "registered_name": null
                    },
                    "kernel_regularizer": null,
                    "bias_regularizer": null,
                    "activity_regularizer": null,
                    "kernel_constraint": null,
                    "bias_constraint": null
                  },
                  "name": "conv3_block1_1_conv",
                  "inbound_nodes": [
                    {
                      "args": [
                        {
                          "class_name": "__keras_tensor__",
                          "config": {
                            "shape": [null, 22, 26, 256],
                            "dtype": "float32",
                            "keras_history": ["conv3_block1_preact_relu", 0, 0]
                          }
                        }
                      ],
                      "kwargs": {}
                    }
                  ]
                },
                {
                  "class_name": "BatchNormalization",
                  "config": {
                    "name": "conv3_block1_1_bn",
                    "trainable": false,
                    "dtype": "float32",
                    "axis": 3,
                    "momentum": 0.99,
                    "epsilon": 1.001e-5,
                    "center": true,
                    "scale": true,
                    "beta_initializer": {
                      "module": "keras.initializers",
                      "class_name": "Zeros",
                      "config": {},
                      "registered_name": null
                    },
                    "gamma_initializer": {
                      "module": "keras.initializers",
                      "class_name": "Ones",
                      "config": {},
                      "registered_name": null
                    },
                    "moving_mean_initializer": {
                      "module": "keras.initializers",
                      "class_name": "Zeros",
                      "config": {},
                      "registered_name": null
                    },
                    "moving_variance_initializer": {
                      "module": "keras.initializers",
                      "class_name": "Ones",
                      "config": {},
                      "registered_name": null
                    },
                    "beta_regularizer": null,
                    "gamma_regularizer": null,
                    "beta_constraint": null,
                    "gamma_constraint": null,
                    "synchronized": false
                  },
                  "name": "conv3_block1_1_bn",
                  "inbound_nodes": [
                    {
                      "args": [
                        {
                          "class_name": "__keras_tensor__",
                          "config": {
                            "shape": [null, 22, 26, 128],
                            "dtype": "float32",
                            "keras_history": ["conv3_block1_1_conv", 0, 0]
                          }
                        }
                      ],
                      "kwargs": { "mask": null }
                    }
                  ]
                },
                {
                  "class_name": "Activation",
                  "config": {
                    "name": "conv3_block1_1_relu",
                    "trainable": false,
                    "dtype": "float32",
                    "activation": "relu"
                  },
                  "name": "conv3_block1_1_relu",
                  "inbound_nodes": [
                    {
                      "args": [
                        {
                          "class_name": "__keras_tensor__",
                          "config": {
                            "shape": [null, 22, 26, 128],
                            "dtype": "float32",
                            "keras_history": ["conv3_block1_1_bn", 0, 0]
                          }
                        }
                      ],
                      "kwargs": {}
                    }
                  ]
                },
                {
                  "class_name": "ZeroPadding2D",
                  "config": {
                    "name": "conv3_block1_2_pad",
                    "trainable": false,
                    "dtype": "float32",
                    "padding": [
                      [1, 1],
                      [1, 1]
                    ],
                    "data_format": "channels_last"
                  },
                  "name": "conv3_block1_2_pad",
                  "inbound_nodes": [
                    {
                      "args": [
                        {
                          "class_name": "__keras_tensor__",
                          "config": {
                            "shape": [null, 22, 26, 128],
                            "dtype": "float32",
                            "keras_history": ["conv3_block1_1_relu", 0, 0]
                          }
                        }
                      ],
                      "kwargs": {}
                    }
                  ]
                },
                {
                  "class_name": "Conv2D",
                  "config": {
                    "name": "conv3_block1_2_conv",
                    "trainable": false,
                    "dtype": "float32",
                    "filters": 128,
                    "kernel_size": [3, 3],
                    "strides": [1, 1],
                    "padding": "valid",
                    "data_format": "channels_last",
                    "dilation_rate": [1, 1],
                    "groups": 1,
                    "activation": "linear",
                    "use_bias": false,
                    "kernel_initializer": {
                      "module": "keras.initializers",
                      "class_name": "GlorotUniform",
                      "config": { "seed": null },
                      "registered_name": null
                    },
                    "bias_initializer": {
                      "module": "keras.initializers",
                      "class_name": "Zeros",
                      "config": {},
                      "registered_name": null
                    },
                    "kernel_regularizer": null,
                    "bias_regularizer": null,
                    "activity_regularizer": null,
                    "kernel_constraint": null,
                    "bias_constraint": null
                  },
                  "name": "conv3_block1_2_conv",
                  "inbound_nodes": [
                    {
                      "args": [
                        {
                          "class_name": "__keras_tensor__",
                          "config": {
                            "shape": [null, 24, 28, 128],
                            "dtype": "float32",
                            "keras_history": ["conv3_block1_2_pad", 0, 0]
                          }
                        }
                      ],
                      "kwargs": {}
                    }
                  ]
                },
                {
                  "class_name": "BatchNormalization",
                  "config": {
                    "name": "conv3_block1_2_bn",
                    "trainable": false,
                    "dtype": "float32",
                    "axis": 3,
                    "momentum": 0.99,
                    "epsilon": 1.001e-5,
                    "center": true,
                    "scale": true,
                    "beta_initializer": {
                      "module": "keras.initializers",
                      "class_name": "Zeros",
                      "config": {},
                      "registered_name": null
                    },
                    "gamma_initializer": {
                      "module": "keras.initializers",
                      "class_name": "Ones",
                      "config": {},
                      "registered_name": null
                    },
                    "moving_mean_initializer": {
                      "module": "keras.initializers",
                      "class_name": "Zeros",
                      "config": {},
                      "registered_name": null
                    },
                    "moving_variance_initializer": {
                      "module": "keras.initializers",
                      "class_name": "Ones",
                      "config": {},
                      "registered_name": null
                    },
                    "beta_regularizer": null,
                    "gamma_regularizer": null,
                    "beta_constraint": null,
                    "gamma_constraint": null,
                    "synchronized": false
                  },
                  "name": "conv3_block1_2_bn",
                  "inbound_nodes": [
                    {
                      "args": [
                        {
                          "class_name": "__keras_tensor__",
                          "config": {
                            "shape": [null, 22, 26, 128],
                            "dtype": "float32",
                            "keras_history": ["conv3_block1_2_conv", 0, 0]
                          }
                        }
                      ],
                      "kwargs": { "mask": null }
                    }
                  ]
                },
                {
                  "class_name": "Activation",
                  "config": {
                    "name": "conv3_block1_2_relu",
                    "trainable": false,
                    "dtype": "float32",
                    "activation": "relu"
                  },
                  "name": "conv3_block1_2_relu",
                  "inbound_nodes": [
                    {
                      "args": [
                        {
                          "class_name": "__keras_tensor__",
                          "config": {
                            "shape": [null, 22, 26, 128],
                            "dtype": "float32",
                            "keras_history": ["conv3_block1_2_bn", 0, 0]
                          }
                        }
                      ],
                      "kwargs": {}
                    }
                  ]
                },
                {
                  "class_name": "Conv2D",
                  "config": {
                    "name": "conv3_block1_0_conv",
                    "trainable": false,
                    "dtype": "float32",
                    "filters": 512,
                    "kernel_size": [1, 1],
                    "strides": [1, 1],
                    "padding": "valid",
                    "data_format": "channels_last",
                    "dilation_rate": [1, 1],
                    "groups": 1,
                    "activation": "linear",
                    "use_bias": true,
                    "kernel_initializer": {
                      "module": "keras.initializers",
                      "class_name": "GlorotUniform",
                      "config": { "seed": null },
                      "registered_name": null
                    },
                    "bias_initializer": {
                      "module": "keras.initializers",
                      "class_name": "Zeros",
                      "config": {},
                      "registered_name": null
                    },
                    "kernel_regularizer": null,
                    "bias_regularizer": null,
                    "activity_regularizer": null,
                    "kernel_constraint": null,
                    "bias_constraint": null
                  },
                  "name": "conv3_block1_0_conv",
                  "inbound_nodes": [
                    {
                      "args": [
                        {
                          "class_name": "__keras_tensor__",
                          "config": {
                            "shape": [null, 22, 26, 256],
                            "dtype": "float32",
                            "keras_history": ["conv3_block1_preact_relu", 0, 0]
                          }
                        }
                      ],
                      "kwargs": {}
                    }
                  ]
                },
                {
                  "class_name": "Conv2D",
                  "config": {
                    "name": "conv3_block1_3_conv",
                    "trainable": false,
                    "dtype": "float32",
                    "filters": 512,
                    "kernel_size": [1, 1],
                    "strides": [1, 1],
                    "padding": "valid",
                    "data_format": "channels_last",
                    "dilation_rate": [1, 1],
                    "groups": 1,
                    "activation": "linear",
                    "use_bias": true,
                    "kernel_initializer": {
                      "module": "keras.initializers",
                      "class_name": "GlorotUniform",
                      "config": { "seed": null },
                      "registered_name": null
                    },
                    "bias_initializer": {
                      "module": "keras.initializers",
                      "class_name": "Zeros",
                      "config": {},
                      "registered_name": null
                    },
                    "kernel_regularizer": null,
                    "bias_regularizer": null,
                    "activity_regularizer": null,
                    "kernel_constraint": null,
                    "bias_constraint": null
                  },
                  "name": "conv3_block1_3_conv",
                  "inbound_nodes": [
                    {
                      "args": [
                        {
                          "class_name": "__keras_tensor__",
                          "config": {
                            "shape": [null, 22, 26, 128],
                            "dtype": "float32",
                            "keras_history": ["conv3_block1_2_relu", 0, 0]
                          }
                        }
                      ],
                      "kwargs": {}
                    }
                  ]
                },
                {
                  "class_name": "Add",
                  "config": {
                    "name": "conv3_block1_out",
                    "trainable": false,
                    "dtype": "float32"
                  },
                  "name": "conv3_block1_out",
                  "inbound_nodes": [
                    {
                      "args": [
                        [
                          {
                            "class_name": "__keras_tensor__",
                            "config": {
                              "shape": [null, 22, 26, 512],
                              "dtype": "float32",
                              "keras_history": ["conv3_block1_0_conv", 0, 0]
                            }
                          },
                          {
                            "class_name": "__keras_tensor__",
                            "config": {
                              "shape": [null, 22, 26, 512],
                              "dtype": "float32",
                              "keras_history": ["conv3_block1_3_conv", 0, 0]
                            }
                          }
                        ]
                      ],
                      "kwargs": {}
                    }
                  ]
                },
                {
                  "class_name": "BatchNormalization",
                  "config": {
                    "name": "conv3_block2_preact_bn",
                    "trainable": false,
                    "dtype": "float32",
                    "axis": 3,
                    "momentum": 0.99,
                    "epsilon": 1.001e-5,
                    "center": true,
                    "scale": true,
                    "beta_initializer": {
                      "module": "keras.initializers",
                      "class_name": "Zeros",
                      "config": {},
                      "registered_name": null
                    },
                    "gamma_initializer": {
                      "module": "keras.initializers",
                      "class_name": "Ones",
                      "config": {},
                      "registered_name": null
                    },
                    "moving_mean_initializer": {
                      "module": "keras.initializers",
                      "class_name": "Zeros",
                      "config": {},
                      "registered_name": null
                    },
                    "moving_variance_initializer": {
                      "module": "keras.initializers",
                      "class_name": "Ones",
                      "config": {},
                      "registered_name": null
                    },
                    "beta_regularizer": null,
                    "gamma_regularizer": null,
                    "beta_constraint": null,
                    "gamma_constraint": null,
                    "synchronized": false
                  },
                  "name": "conv3_block2_preact_bn",
                  "inbound_nodes": [
                    {
                      "args": [
                        {
                          "class_name": "__keras_tensor__",
                          "config": {
                            "shape": [null, 22, 26, 512],
                            "dtype": "float32",
                            "keras_history": ["conv3_block1_out", 0, 0]
                          }
                        }
                      ],
                      "kwargs": { "mask": null }
                    }
                  ]
                },
                {
                  "class_name": "Activation",
                  "config": {
                    "name": "conv3_block2_preact_relu",
                    "trainable": false,
                    "dtype": "float32",
                    "activation": "relu"
                  },
                  "name": "conv3_block2_preact_relu",
                  "inbound_nodes": [
                    {
                      "args": [
                        {
                          "class_name": "__keras_tensor__",
                          "config": {
                            "shape": [null, 22, 26, 512],
                            "dtype": "float32",
                            "keras_history": ["conv3_block2_preact_bn", 0, 0]
                          }
                        }
                      ],
                      "kwargs": {}
                    }
                  ]
                },
                {
                  "class_name": "Conv2D",
                  "config": {
                    "name": "conv3_block2_1_conv",
                    "trainable": false,
                    "dtype": "float32",
                    "filters": 128,
                    "kernel_size": [1, 1],
                    "strides": [1, 1],
                    "padding": "valid",
                    "data_format": "channels_last",
                    "dilation_rate": [1, 1],
                    "groups": 1,
                    "activation": "linear",
                    "use_bias": false,
                    "kernel_initializer": {
                      "module": "keras.initializers",
                      "class_name": "GlorotUniform",
                      "config": { "seed": null },
                      "registered_name": null
                    },
                    "bias_initializer": {
                      "module": "keras.initializers",
                      "class_name": "Zeros",
                      "config": {},
                      "registered_name": null
                    },
                    "kernel_regularizer": null,
                    "bias_regularizer": null,
                    "activity_regularizer": null,
                    "kernel_constraint": null,
                    "bias_constraint": null
                  },
                  "name": "conv3_block2_1_conv",
                  "inbound_nodes": [
                    {
                      "args": [
                        {
                          "class_name": "__keras_tensor__",
                          "config": {
                            "shape": [null, 22, 26, 512],
                            "dtype": "float32",
                            "keras_history": ["conv3_block2_preact_relu", 0, 0]
                          }
                        }
                      ],
                      "kwargs": {}
                    }
                  ]
                },
                {
                  "class_name": "BatchNormalization",
                  "config": {
                    "name": "conv3_block2_1_bn",
                    "trainable": false,
                    "dtype": "float32",
                    "axis": 3,
                    "momentum": 0.99,
                    "epsilon": 1.001e-5,
                    "center": true,
                    "scale": true,
                    "beta_initializer": {
                      "module": "keras.initializers",
                      "class_name": "Zeros",
                      "config": {},
                      "registered_name": null
                    },
                    "gamma_initializer": {
                      "module": "keras.initializers",
                      "class_name": "Ones",
                      "config": {},
                      "registered_name": null
                    },
                    "moving_mean_initializer": {
                      "module": "keras.initializers",
                      "class_name": "Zeros",
                      "config": {},
                      "registered_name": null
                    },
                    "moving_variance_initializer": {
                      "module": "keras.initializers",
                      "class_name": "Ones",
                      "config": {},
                      "registered_name": null
                    },
                    "beta_regularizer": null,
                    "gamma_regularizer": null,
                    "beta_constraint": null,
                    "gamma_constraint": null,
                    "synchronized": false
                  },
                  "name": "conv3_block2_1_bn",
                  "inbound_nodes": [
                    {
                      "args": [
                        {
                          "class_name": "__keras_tensor__",
                          "config": {
                            "shape": [null, 22, 26, 128],
                            "dtype": "float32",
                            "keras_history": ["conv3_block2_1_conv", 0, 0]
                          }
                        }
                      ],
                      "kwargs": { "mask": null }
                    }
                  ]
                },
                {
                  "class_name": "Activation",
                  "config": {
                    "name": "conv3_block2_1_relu",
                    "trainable": false,
                    "dtype": "float32",
                    "activation": "relu"
                  },
                  "name": "conv3_block2_1_relu",
                  "inbound_nodes": [
                    {
                      "args": [
                        {
                          "class_name": "__keras_tensor__",
                          "config": {
                            "shape": [null, 22, 26, 128],
                            "dtype": "float32",
                            "keras_history": ["conv3_block2_1_bn", 0, 0]
                          }
                        }
                      ],
                      "kwargs": {}
                    }
                  ]
                },
                {
                  "class_name": "ZeroPadding2D",
                  "config": {
                    "name": "conv3_block2_2_pad",
                    "trainable": false,
                    "dtype": "float32",
                    "padding": [
                      [1, 1],
                      [1, 1]
                    ],
                    "data_format": "channels_last"
                  },
                  "name": "conv3_block2_2_pad",
                  "inbound_nodes": [
                    {
                      "args": [
                        {
                          "class_name": "__keras_tensor__",
                          "config": {
                            "shape": [null, 22, 26, 128],
                            "dtype": "float32",
                            "keras_history": ["conv3_block2_1_relu", 0, 0]
                          }
                        }
                      ],
                      "kwargs": {}
                    }
                  ]
                },
                {
                  "class_name": "Conv2D",
                  "config": {
                    "name": "conv3_block2_2_conv",
                    "trainable": false,
                    "dtype": "float32",
                    "filters": 128,
                    "kernel_size": [3, 3],
                    "strides": [1, 1],
                    "padding": "valid",
                    "data_format": "channels_last",
                    "dilation_rate": [1, 1],
                    "groups": 1,
                    "activation": "linear",
                    "use_bias": false,
                    "kernel_initializer": {
                      "module": "keras.initializers",
                      "class_name": "GlorotUniform",
                      "config": { "seed": null },
                      "registered_name": null
                    },
                    "bias_initializer": {
                      "module": "keras.initializers",
                      "class_name": "Zeros",
                      "config": {},
                      "registered_name": null
                    },
                    "kernel_regularizer": null,
                    "bias_regularizer": null,
                    "activity_regularizer": null,
                    "kernel_constraint": null,
                    "bias_constraint": null
                  },
                  "name": "conv3_block2_2_conv",
                  "inbound_nodes": [
                    {
                      "args": [
                        {
                          "class_name": "__keras_tensor__",
                          "config": {
                            "shape": [null, 24, 28, 128],
                            "dtype": "float32",
                            "keras_history": ["conv3_block2_2_pad", 0, 0]
                          }
                        }
                      ],
                      "kwargs": {}
                    }
                  ]
                },
                {
                  "class_name": "BatchNormalization",
                  "config": {
                    "name": "conv3_block2_2_bn",
                    "trainable": false,
                    "dtype": "float32",
                    "axis": 3,
                    "momentum": 0.99,
                    "epsilon": 1.001e-5,
                    "center": true,
                    "scale": true,
                    "beta_initializer": {
                      "module": "keras.initializers",
                      "class_name": "Zeros",
                      "config": {},
                      "registered_name": null
                    },
                    "gamma_initializer": {
                      "module": "keras.initializers",
                      "class_name": "Ones",
                      "config": {},
                      "registered_name": null
                    },
                    "moving_mean_initializer": {
                      "module": "keras.initializers",
                      "class_name": "Zeros",
                      "config": {},
                      "registered_name": null
                    },
                    "moving_variance_initializer": {
                      "module": "keras.initializers",
                      "class_name": "Ones",
                      "config": {},
                      "registered_name": null
                    },
                    "beta_regularizer": null,
                    "gamma_regularizer": null,
                    "beta_constraint": null,
                    "gamma_constraint": null,
                    "synchronized": false
                  },
                  "name": "conv3_block2_2_bn",
                  "inbound_nodes": [
                    {
                      "args": [
                        {
                          "class_name": "__keras_tensor__",
                          "config": {
                            "shape": [null, 22, 26, 128],
                            "dtype": "float32",
                            "keras_history": ["conv3_block2_2_conv", 0, 0]
                          }
                        }
                      ],
                      "kwargs": { "mask": null }
                    }
                  ]
                },
                {
                  "class_name": "Activation",
                  "config": {
                    "name": "conv3_block2_2_relu",
                    "trainable": false,
                    "dtype": "float32",
                    "activation": "relu"
                  },
                  "name": "conv3_block2_2_relu",
                  "inbound_nodes": [
                    {
                      "args": [
                        {
                          "class_name": "__keras_tensor__",
                          "config": {
                            "shape": [null, 22, 26, 128],
                            "dtype": "float32",
                            "keras_history": ["conv3_block2_2_bn", 0, 0]
                          }
                        }
                      ],
                      "kwargs": {}
                    }
                  ]
                },
                {
                  "class_name": "Conv2D",
                  "config": {
                    "name": "conv3_block2_3_conv",
                    "trainable": false,
                    "dtype": "float32",
                    "filters": 512,
                    "kernel_size": [1, 1],
                    "strides": [1, 1],
                    "padding": "valid",
                    "data_format": "channels_last",
                    "dilation_rate": [1, 1],
                    "groups": 1,
                    "activation": "linear",
                    "use_bias": true,
                    "kernel_initializer": {
                      "module": "keras.initializers",
                      "class_name": "GlorotUniform",
                      "config": { "seed": null },
                      "registered_name": null
                    },
                    "bias_initializer": {
                      "module": "keras.initializers",
                      "class_name": "Zeros",
                      "config": {},
                      "registered_name": null
                    },
                    "kernel_regularizer": null,
                    "bias_regularizer": null,
                    "activity_regularizer": null,
                    "kernel_constraint": null,
                    "bias_constraint": null
                  },
                  "name": "conv3_block2_3_conv",
                  "inbound_nodes": [
                    {
                      "args": [
                        {
                          "class_name": "__keras_tensor__",
                          "config": {
                            "shape": [null, 22, 26, 128],
                            "dtype": "float32",
                            "keras_history": ["conv3_block2_2_relu", 0, 0]
                          }
                        }
                      ],
                      "kwargs": {}
                    }
                  ]
                },
                {
                  "class_name": "Add",
                  "config": {
                    "name": "conv3_block2_out",
                    "trainable": false,
                    "dtype": "float32"
                  },
                  "name": "conv3_block2_out",
                  "inbound_nodes": [
                    {
                      "args": [
                        [
                          {
                            "class_name": "__keras_tensor__",
                            "config": {
                              "shape": [null, 22, 26, 512],
                              "dtype": "float32",
                              "keras_history": ["conv3_block1_out", 0, 0]
                            }
                          },
                          {
                            "class_name": "__keras_tensor__",
                            "config": {
                              "shape": [null, 22, 26, 512],
                              "dtype": "float32",
                              "keras_history": ["conv3_block2_3_conv", 0, 0]
                            }
                          }
                        ]
                      ],
                      "kwargs": {}
                    }
                  ]
                },
                {
                  "class_name": "BatchNormalization",
                  "config": {
                    "name": "conv3_block3_preact_bn",
                    "trainable": false,
                    "dtype": "float32",
                    "axis": 3,
                    "momentum": 0.99,
                    "epsilon": 1.001e-5,
                    "center": true,
                    "scale": true,
                    "beta_initializer": {
                      "module": "keras.initializers",
                      "class_name": "Zeros",
                      "config": {},
                      "registered_name": null
                    },
                    "gamma_initializer": {
                      "module": "keras.initializers",
                      "class_name": "Ones",
                      "config": {},
                      "registered_name": null
                    },
                    "moving_mean_initializer": {
                      "module": "keras.initializers",
                      "class_name": "Zeros",
                      "config": {},
                      "registered_name": null
                    },
                    "moving_variance_initializer": {
                      "module": "keras.initializers",
                      "class_name": "Ones",
                      "config": {},
                      "registered_name": null
                    },
                    "beta_regularizer": null,
                    "gamma_regularizer": null,
                    "beta_constraint": null,
                    "gamma_constraint": null,
                    "synchronized": false
                  },
                  "name": "conv3_block3_preact_bn",
                  "inbound_nodes": [
                    {
                      "args": [
                        {
                          "class_name": "__keras_tensor__",
                          "config": {
                            "shape": [null, 22, 26, 512],
                            "dtype": "float32",
                            "keras_history": ["conv3_block2_out", 0, 0]
                          }
                        }
                      ],
                      "kwargs": { "mask": null }
                    }
                  ]
                },
                {
                  "class_name": "Activation",
                  "config": {
                    "name": "conv3_block3_preact_relu",
                    "trainable": false,
                    "dtype": "float32",
                    "activation": "relu"
                  },
                  "name": "conv3_block3_preact_relu",
                  "inbound_nodes": [
                    {
                      "args": [
                        {
                          "class_name": "__keras_tensor__",
                          "config": {
                            "shape": [null, 22, 26, 512],
                            "dtype": "float32",
                            "keras_history": ["conv3_block3_preact_bn", 0, 0]
                          }
                        }
                      ],
                      "kwargs": {}
                    }
                  ]
                },
                {
                  "class_name": "Conv2D",
                  "config": {
                    "name": "conv3_block3_1_conv",
                    "trainable": false,
                    "dtype": "float32",
                    "filters": 128,
                    "kernel_size": [1, 1],
                    "strides": [1, 1],
                    "padding": "valid",
                    "data_format": "channels_last",
                    "dilation_rate": [1, 1],
                    "groups": 1,
                    "activation": "linear",
                    "use_bias": false,
                    "kernel_initializer": {
                      "module": "keras.initializers",
                      "class_name": "GlorotUniform",
                      "config": { "seed": null },
                      "registered_name": null
                    },
                    "bias_initializer": {
                      "module": "keras.initializers",
                      "class_name": "Zeros",
                      "config": {},
                      "registered_name": null
                    },
                    "kernel_regularizer": null,
                    "bias_regularizer": null,
                    "activity_regularizer": null,
                    "kernel_constraint": null,
                    "bias_constraint": null
                  },
                  "name": "conv3_block3_1_conv",
                  "inbound_nodes": [
                    {
                      "args": [
                        {
                          "class_name": "__keras_tensor__",
                          "config": {
                            "shape": [null, 22, 26, 512],
                            "dtype": "float32",
                            "keras_history": ["conv3_block3_preact_relu", 0, 0]
                          }
                        }
                      ],
                      "kwargs": {}
                    }
                  ]
                },
                {
                  "class_name": "BatchNormalization",
                  "config": {
                    "name": "conv3_block3_1_bn",
                    "trainable": false,
                    "dtype": "float32",
                    "axis": 3,
                    "momentum": 0.99,
                    "epsilon": 1.001e-5,
                    "center": true,
                    "scale": true,
                    "beta_initializer": {
                      "module": "keras.initializers",
                      "class_name": "Zeros",
                      "config": {},
                      "registered_name": null
                    },
                    "gamma_initializer": {
                      "module": "keras.initializers",
                      "class_name": "Ones",
                      "config": {},
                      "registered_name": null
                    },
                    "moving_mean_initializer": {
                      "module": "keras.initializers",
                      "class_name": "Zeros",
                      "config": {},
                      "registered_name": null
                    },
                    "moving_variance_initializer": {
                      "module": "keras.initializers",
                      "class_name": "Ones",
                      "config": {},
                      "registered_name": null
                    },
                    "beta_regularizer": null,
                    "gamma_regularizer": null,
                    "beta_constraint": null,
                    "gamma_constraint": null,
                    "synchronized": false
                  },
                  "name": "conv3_block3_1_bn",
                  "inbound_nodes": [
                    {
                      "args": [
                        {
                          "class_name": "__keras_tensor__",
                          "config": {
                            "shape": [null, 22, 26, 128],
                            "dtype": "float32",
                            "keras_history": ["conv3_block3_1_conv", 0, 0]
                          }
                        }
                      ],
                      "kwargs": { "mask": null }
                    }
                  ]
                },
                {
                  "class_name": "Activation",
                  "config": {
                    "name": "conv3_block3_1_relu",
                    "trainable": false,
                    "dtype": "float32",
                    "activation": "relu"
                  },
                  "name": "conv3_block3_1_relu",
                  "inbound_nodes": [
                    {
                      "args": [
                        {
                          "class_name": "__keras_tensor__",
                          "config": {
                            "shape": [null, 22, 26, 128],
                            "dtype": "float32",
                            "keras_history": ["conv3_block3_1_bn", 0, 0]
                          }
                        }
                      ],
                      "kwargs": {}
                    }
                  ]
                },
                {
                  "class_name": "ZeroPadding2D",
                  "config": {
                    "name": "conv3_block3_2_pad",
                    "trainable": false,
                    "dtype": "float32",
                    "padding": [
                      [1, 1],
                      [1, 1]
                    ],
                    "data_format": "channels_last"
                  },
                  "name": "conv3_block3_2_pad",
                  "inbound_nodes": [
                    {
                      "args": [
                        {
                          "class_name": "__keras_tensor__",
                          "config": {
                            "shape": [null, 22, 26, 128],
                            "dtype": "float32",
                            "keras_history": ["conv3_block3_1_relu", 0, 0]
                          }
                        }
                      ],
                      "kwargs": {}
                    }
                  ]
                },
                {
                  "class_name": "Conv2D",
                  "config": {
                    "name": "conv3_block3_2_conv",
                    "trainable": false,
                    "dtype": "float32",
                    "filters": 128,
                    "kernel_size": [3, 3],
                    "strides": [1, 1],
                    "padding": "valid",
                    "data_format": "channels_last",
                    "dilation_rate": [1, 1],
                    "groups": 1,
                    "activation": "linear",
                    "use_bias": false,
                    "kernel_initializer": {
                      "module": "keras.initializers",
                      "class_name": "GlorotUniform",
                      "config": { "seed": null },
                      "registered_name": null
                    },
                    "bias_initializer": {
                      "module": "keras.initializers",
                      "class_name": "Zeros",
                      "config": {},
                      "registered_name": null
                    },
                    "kernel_regularizer": null,
                    "bias_regularizer": null,
                    "activity_regularizer": null,
                    "kernel_constraint": null,
                    "bias_constraint": null
                  },
                  "name": "conv3_block3_2_conv",
                  "inbound_nodes": [
                    {
                      "args": [
                        {
                          "class_name": "__keras_tensor__",
                          "config": {
                            "shape": [null, 24, 28, 128],
                            "dtype": "float32",
                            "keras_history": ["conv3_block3_2_pad", 0, 0]
                          }
                        }
                      ],
                      "kwargs": {}
                    }
                  ]
                },
                {
                  "class_name": "BatchNormalization",
                  "config": {
                    "name": "conv3_block3_2_bn",
                    "trainable": false,
                    "dtype": "float32",
                    "axis": 3,
                    "momentum": 0.99,
                    "epsilon": 1.001e-5,
                    "center": true,
                    "scale": true,
                    "beta_initializer": {
                      "module": "keras.initializers",
                      "class_name": "Zeros",
                      "config": {},
                      "registered_name": null
                    },
                    "gamma_initializer": {
                      "module": "keras.initializers",
                      "class_name": "Ones",
                      "config": {},
                      "registered_name": null
                    },
                    "moving_mean_initializer": {
                      "module": "keras.initializers",
                      "class_name": "Zeros",
                      "config": {},
                      "registered_name": null
                    },
                    "moving_variance_initializer": {
                      "module": "keras.initializers",
                      "class_name": "Ones",
                      "config": {},
                      "registered_name": null
                    },
                    "beta_regularizer": null,
                    "gamma_regularizer": null,
                    "beta_constraint": null,
                    "gamma_constraint": null,
                    "synchronized": false
                  },
                  "name": "conv3_block3_2_bn",
                  "inbound_nodes": [
                    {
                      "args": [
                        {
                          "class_name": "__keras_tensor__",
                          "config": {
                            "shape": [null, 22, 26, 128],
                            "dtype": "float32",
                            "keras_history": ["conv3_block3_2_conv", 0, 0]
                          }
                        }
                      ],
                      "kwargs": { "mask": null }
                    }
                  ]
                },
                {
                  "class_name": "Activation",
                  "config": {
                    "name": "conv3_block3_2_relu",
                    "trainable": false,
                    "dtype": "float32",
                    "activation": "relu"
                  },
                  "name": "conv3_block3_2_relu",
                  "inbound_nodes": [
                    {
                      "args": [
                        {
                          "class_name": "__keras_tensor__",
                          "config": {
                            "shape": [null, 22, 26, 128],
                            "dtype": "float32",
                            "keras_history": ["conv3_block3_2_bn", 0, 0]
                          }
                        }
                      ],
                      "kwargs": {}
                    }
                  ]
                },
                {
                  "class_name": "Conv2D",
                  "config": {
                    "name": "conv3_block3_3_conv",
                    "trainable": false,
                    "dtype": "float32",
                    "filters": 512,
                    "kernel_size": [1, 1],
                    "strides": [1, 1],
                    "padding": "valid",
                    "data_format": "channels_last",
                    "dilation_rate": [1, 1],
                    "groups": 1,
                    "activation": "linear",
                    "use_bias": true,
                    "kernel_initializer": {
                      "module": "keras.initializers",
                      "class_name": "GlorotUniform",
                      "config": { "seed": null },
                      "registered_name": null
                    },
                    "bias_initializer": {
                      "module": "keras.initializers",
                      "class_name": "Zeros",
                      "config": {},
                      "registered_name": null
                    },
                    "kernel_regularizer": null,
                    "bias_regularizer": null,
                    "activity_regularizer": null,
                    "kernel_constraint": null,
                    "bias_constraint": null
                  },
                  "name": "conv3_block3_3_conv",
                  "inbound_nodes": [
                    {
                      "args": [
                        {
                          "class_name": "__keras_tensor__",
                          "config": {
                            "shape": [null, 22, 26, 128],
                            "dtype": "float32",
                            "keras_history": ["conv3_block3_2_relu", 0, 0]
                          }
                        }
                      ],
                      "kwargs": {}
                    }
                  ]
                },
                {
                  "class_name": "Add",
                  "config": {
                    "name": "conv3_block3_out",
                    "trainable": false,
                    "dtype": "float32"
                  },
                  "name": "conv3_block3_out",
                  "inbound_nodes": [
                    {
                      "args": [
                        [
                          {
                            "class_name": "__keras_tensor__",
                            "config": {
                              "shape": [null, 22, 26, 512],
                              "dtype": "float32",
                              "keras_history": ["conv3_block2_out", 0, 0]
                            }
                          },
                          {
                            "class_name": "__keras_tensor__",
                            "config": {
                              "shape": [null, 22, 26, 512],
                              "dtype": "float32",
                              "keras_history": ["conv3_block3_3_conv", 0, 0]
                            }
                          }
                        ]
                      ],
                      "kwargs": {}
                    }
                  ]
                },
                {
                  "class_name": "BatchNormalization",
                  "config": {
                    "name": "conv3_block4_preact_bn",
                    "trainable": false,
                    "dtype": "float32",
                    "axis": 3,
                    "momentum": 0.99,
                    "epsilon": 1.001e-5,
                    "center": true,
                    "scale": true,
                    "beta_initializer": {
                      "module": "keras.initializers",
                      "class_name": "Zeros",
                      "config": {},
                      "registered_name": null
                    },
                    "gamma_initializer": {
                      "module": "keras.initializers",
                      "class_name": "Ones",
                      "config": {},
                      "registered_name": null
                    },
                    "moving_mean_initializer": {
                      "module": "keras.initializers",
                      "class_name": "Zeros",
                      "config": {},
                      "registered_name": null
                    },
                    "moving_variance_initializer": {
                      "module": "keras.initializers",
                      "class_name": "Ones",
                      "config": {},
                      "registered_name": null
                    },
                    "beta_regularizer": null,
                    "gamma_regularizer": null,
                    "beta_constraint": null,
                    "gamma_constraint": null,
                    "synchronized": false
                  },
                  "name": "conv3_block4_preact_bn",
                  "inbound_nodes": [
                    {
                      "args": [
                        {
                          "class_name": "__keras_tensor__",
                          "config": {
                            "shape": [null, 22, 26, 512],
                            "dtype": "float32",
                            "keras_history": ["conv3_block3_out", 0, 0]
                          }
                        }
                      ],
                      "kwargs": { "mask": null }
                    }
                  ]
                },
                {
                  "class_name": "Activation",
                  "config": {
                    "name": "conv3_block4_preact_relu",
                    "trainable": false,
                    "dtype": "float32",
                    "activation": "relu"
                  },
                  "name": "conv3_block4_preact_relu",
                  "inbound_nodes": [
                    {
                      "args": [
                        {
                          "class_name": "__keras_tensor__",
                          "config": {
                            "shape": [null, 22, 26, 512],
                            "dtype": "float32",
                            "keras_history": ["conv3_block4_preact_bn", 0, 0]
                          }
                        }
                      ],
                      "kwargs": {}
                    }
                  ]
                },
                {
                  "class_name": "Conv2D",
                  "config": {
                    "name": "conv3_block4_1_conv",
                    "trainable": false,
                    "dtype": "float32",
                    "filters": 128,
                    "kernel_size": [1, 1],
                    "strides": [1, 1],
                    "padding": "valid",
                    "data_format": "channels_last",
                    "dilation_rate": [1, 1],
                    "groups": 1,
                    "activation": "linear",
                    "use_bias": false,
                    "kernel_initializer": {
                      "module": "keras.initializers",
                      "class_name": "GlorotUniform",
                      "config": { "seed": null },
                      "registered_name": null
                    },
                    "bias_initializer": {
                      "module": "keras.initializers",
                      "class_name": "Zeros",
                      "config": {},
                      "registered_name": null
                    },
                    "kernel_regularizer": null,
                    "bias_regularizer": null,
                    "activity_regularizer": null,
                    "kernel_constraint": null,
                    "bias_constraint": null
                  },
                  "name": "conv3_block4_1_conv",
                  "inbound_nodes": [
                    {
                      "args": [
                        {
                          "class_name": "__keras_tensor__",
                          "config": {
                            "shape": [null, 22, 26, 512],
                            "dtype": "float32",
                            "keras_history": ["conv3_block4_preact_relu", 0, 0]
                          }
                        }
                      ],
                      "kwargs": {}
                    }
                  ]
                },
                {
                  "class_name": "BatchNormalization",
                  "config": {
                    "name": "conv3_block4_1_bn",
                    "trainable": false,
                    "dtype": "float32",
                    "axis": 3,
                    "momentum": 0.99,
                    "epsilon": 1.001e-5,
                    "center": true,
                    "scale": true,
                    "beta_initializer": {
                      "module": "keras.initializers",
                      "class_name": "Zeros",
                      "config": {},
                      "registered_name": null
                    },
                    "gamma_initializer": {
                      "module": "keras.initializers",
                      "class_name": "Ones",
                      "config": {},
                      "registered_name": null
                    },
                    "moving_mean_initializer": {
                      "module": "keras.initializers",
                      "class_name": "Zeros",
                      "config": {},
                      "registered_name": null
                    },
                    "moving_variance_initializer": {
                      "module": "keras.initializers",
                      "class_name": "Ones",
                      "config": {},
                      "registered_name": null
                    },
                    "beta_regularizer": null,
                    "gamma_regularizer": null,
                    "beta_constraint": null,
                    "gamma_constraint": null,
                    "synchronized": false
                  },
                  "name": "conv3_block4_1_bn",
                  "inbound_nodes": [
                    {
                      "args": [
                        {
                          "class_name": "__keras_tensor__",
                          "config": {
                            "shape": [null, 22, 26, 128],
                            "dtype": "float32",
                            "keras_history": ["conv3_block4_1_conv", 0, 0]
                          }
                        }
                      ],
                      "kwargs": { "mask": null }
                    }
                  ]
                },
                {
                  "class_name": "Activation",
                  "config": {
                    "name": "conv3_block4_1_relu",
                    "trainable": false,
                    "dtype": "float32",
                    "activation": "relu"
                  },
                  "name": "conv3_block4_1_relu",
                  "inbound_nodes": [
                    {
                      "args": [
                        {
                          "class_name": "__keras_tensor__",
                          "config": {
                            "shape": [null, 22, 26, 128],
                            "dtype": "float32",
                            "keras_history": ["conv3_block4_1_bn", 0, 0]
                          }
                        }
                      ],
                      "kwargs": {}
                    }
                  ]
                },
                {
                  "class_name": "ZeroPadding2D",
                  "config": {
                    "name": "conv3_block4_2_pad",
                    "trainable": false,
                    "dtype": "float32",
                    "padding": [
                      [1, 1],
                      [1, 1]
                    ],
                    "data_format": "channels_last"
                  },
                  "name": "conv3_block4_2_pad",
                  "inbound_nodes": [
                    {
                      "args": [
                        {
                          "class_name": "__keras_tensor__",
                          "config": {
                            "shape": [null, 22, 26, 128],
                            "dtype": "float32",
                            "keras_history": ["conv3_block4_1_relu", 0, 0]
                          }
                        }
                      ],
                      "kwargs": {}
                    }
                  ]
                },
                {
                  "class_name": "Conv2D",
                  "config": {
                    "name": "conv3_block4_2_conv",
                    "trainable": false,
                    "dtype": "float32",
                    "filters": 128,
                    "kernel_size": [3, 3],
                    "strides": [2, 2],
                    "padding": "valid",
                    "data_format": "channels_last",
                    "dilation_rate": [1, 1],
                    "groups": 1,
                    "activation": "linear",
                    "use_bias": false,
                    "kernel_initializer": {
                      "module": "keras.initializers",
                      "class_name": "GlorotUniform",
                      "config": { "seed": null },
                      "registered_name": null
                    },
                    "bias_initializer": {
                      "module": "keras.initializers",
                      "class_name": "Zeros",
                      "config": {},
                      "registered_name": null
                    },
                    "kernel_regularizer": null,
                    "bias_regularizer": null,
                    "activity_regularizer": null,
                    "kernel_constraint": null,
                    "bias_constraint": null
                  },
                  "name": "conv3_block4_2_conv",
                  "inbound_nodes": [
                    {
                      "args": [
                        {
                          "class_name": "__keras_tensor__",
                          "config": {
                            "shape": [null, 24, 28, 128],
                            "dtype": "float32",
                            "keras_history": ["conv3_block4_2_pad", 0, 0]
                          }
                        }
                      ],
                      "kwargs": {}
                    }
                  ]
                },
                {
                  "class_name": "BatchNormalization",
                  "config": {
                    "name": "conv3_block4_2_bn",
                    "trainable": false,
                    "dtype": "float32",
                    "axis": 3,
                    "momentum": 0.99,
                    "epsilon": 1.001e-5,
                    "center": true,
                    "scale": true,
                    "beta_initializer": {
                      "module": "keras.initializers",
                      "class_name": "Zeros",
                      "config": {},
                      "registered_name": null
                    },
                    "gamma_initializer": {
                      "module": "keras.initializers",
                      "class_name": "Ones",
                      "config": {},
                      "registered_name": null
                    },
                    "moving_mean_initializer": {
                      "module": "keras.initializers",
                      "class_name": "Zeros",
                      "config": {},
                      "registered_name": null
                    },
                    "moving_variance_initializer": {
                      "module": "keras.initializers",
                      "class_name": "Ones",
                      "config": {},
                      "registered_name": null
                    },
                    "beta_regularizer": null,
                    "gamma_regularizer": null,
                    "beta_constraint": null,
                    "gamma_constraint": null,
                    "synchronized": false
                  },
                  "name": "conv3_block4_2_bn",
                  "inbound_nodes": [
                    {
                      "args": [
                        {
                          "class_name": "__keras_tensor__",
                          "config": {
                            "shape": [null, 11, 13, 128],
                            "dtype": "float32",
                            "keras_history": ["conv3_block4_2_conv", 0, 0]
                          }
                        }
                      ],
                      "kwargs": { "mask": null }
                    }
                  ]
                },
                {
                  "class_name": "Activation",
                  "config": {
                    "name": "conv3_block4_2_relu",
                    "trainable": false,
                    "dtype": "float32",
                    "activation": "relu"
                  },
                  "name": "conv3_block4_2_relu",
                  "inbound_nodes": [
                    {
                      "args": [
                        {
                          "class_name": "__keras_tensor__",
                          "config": {
                            "shape": [null, 11, 13, 128],
                            "dtype": "float32",
                            "keras_history": ["conv3_block4_2_bn", 0, 0]
                          }
                        }
                      ],
                      "kwargs": {}
                    }
                  ]
                },
                {
                  "class_name": "MaxPooling2D",
                  "config": {
                    "name": "max_pooling2d_1",
                    "trainable": false,
                    "dtype": "float32",
                    "pool_size": [1, 1],
                    "padding": "valid",
                    "strides": [2, 2],
                    "data_format": "channels_last"
                  },
                  "name": "max_pooling2d_1",
                  "inbound_nodes": [
                    {
                      "args": [
                        {
                          "class_name": "__keras_tensor__",
                          "config": {
                            "shape": [null, 22, 26, 512],
                            "dtype": "float32",
                            "keras_history": ["conv3_block3_out", 0, 0]
                          }
                        }
                      ],
                      "kwargs": {}
                    }
                  ]
                },
                {
                  "class_name": "Conv2D",
                  "config": {
                    "name": "conv3_block4_3_conv",
                    "trainable": false,
                    "dtype": "float32",
                    "filters": 512,
                    "kernel_size": [1, 1],
                    "strides": [1, 1],
                    "padding": "valid",
                    "data_format": "channels_last",
                    "dilation_rate": [1, 1],
                    "groups": 1,
                    "activation": "linear",
                    "use_bias": true,
                    "kernel_initializer": {
                      "module": "keras.initializers",
                      "class_name": "GlorotUniform",
                      "config": { "seed": null },
                      "registered_name": null
                    },
                    "bias_initializer": {
                      "module": "keras.initializers",
                      "class_name": "Zeros",
                      "config": {},
                      "registered_name": null
                    },
                    "kernel_regularizer": null,
                    "bias_regularizer": null,
                    "activity_regularizer": null,
                    "kernel_constraint": null,
                    "bias_constraint": null
                  },
                  "name": "conv3_block4_3_conv",
                  "inbound_nodes": [
                    {
                      "args": [
                        {
                          "class_name": "__keras_tensor__",
                          "config": {
                            "shape": [null, 11, 13, 128],
                            "dtype": "float32",
                            "keras_history": ["conv3_block4_2_relu", 0, 0]
                          }
                        }
                      ],
                      "kwargs": {}
                    }
                  ]
                },
                {
                  "class_name": "Add",
                  "config": {
                    "name": "conv3_block4_out",
                    "trainable": false,
                    "dtype": "float32"
                  },
                  "name": "conv3_block4_out",
                  "inbound_nodes": [
                    {
                      "args": [
                        [
                          {
                            "class_name": "__keras_tensor__",
                            "config": {
                              "shape": [null, 11, 13, 512],
                              "dtype": "float32",
                              "keras_history": ["max_pooling2d_1", 0, 0]
                            }
                          },
                          {
                            "class_name": "__keras_tensor__",
                            "config": {
                              "shape": [null, 11, 13, 512],
                              "dtype": "float32",
                              "keras_history": ["conv3_block4_3_conv", 0, 0]
                            }
                          }
                        ]
                      ],
                      "kwargs": {}
                    }
                  ]
                },
                {
                  "class_name": "BatchNormalization",
                  "config": {
                    "name": "conv4_block1_preact_bn",
                    "trainable": false,
                    "dtype": "float32",
                    "axis": 3,
                    "momentum": 0.99,
                    "epsilon": 1.001e-5,
                    "center": true,
                    "scale": true,
                    "beta_initializer": {
                      "module": "keras.initializers",
                      "class_name": "Zeros",
                      "config": {},
                      "registered_name": null
                    },
                    "gamma_initializer": {
                      "module": "keras.initializers",
                      "class_name": "Ones",
                      "config": {},
                      "registered_name": null
                    },
                    "moving_mean_initializer": {
                      "module": "keras.initializers",
                      "class_name": "Zeros",
                      "config": {},
                      "registered_name": null
                    },
                    "moving_variance_initializer": {
                      "module": "keras.initializers",
                      "class_name": "Ones",
                      "config": {},
                      "registered_name": null
                    },
                    "beta_regularizer": null,
                    "gamma_regularizer": null,
                    "beta_constraint": null,
                    "gamma_constraint": null,
                    "synchronized": false
                  },
                  "name": "conv4_block1_preact_bn",
                  "inbound_nodes": [
                    {
                      "args": [
                        {
                          "class_name": "__keras_tensor__",
                          "config": {
                            "shape": [null, 11, 13, 512],
                            "dtype": "float32",
                            "keras_history": ["conv3_block4_out", 0, 0]
                          }
                        }
                      ],
                      "kwargs": { "mask": null }
                    }
                  ]
                },
                {
                  "class_name": "Activation",
                  "config": {
                    "name": "conv4_block1_preact_relu",
                    "trainable": false,
                    "dtype": "float32",
                    "activation": "relu"
                  },
                  "name": "conv4_block1_preact_relu",
                  "inbound_nodes": [
                    {
                      "args": [
                        {
                          "class_name": "__keras_tensor__",
                          "config": {
                            "shape": [null, 11, 13, 512],
                            "dtype": "float32",
                            "keras_history": ["conv4_block1_preact_bn", 0, 0]
                          }
                        }
                      ],
                      "kwargs": {}
                    }
                  ]
                },
                {
                  "class_name": "Conv2D",
                  "config": {
                    "name": "conv4_block1_1_conv",
                    "trainable": false,
                    "dtype": "float32",
                    "filters": 256,
                    "kernel_size": [1, 1],
                    "strides": [1, 1],
                    "padding": "valid",
                    "data_format": "channels_last",
                    "dilation_rate": [1, 1],
                    "groups": 1,
                    "activation": "linear",
                    "use_bias": false,
                    "kernel_initializer": {
                      "module": "keras.initializers",
                      "class_name": "GlorotUniform",
                      "config": { "seed": null },
                      "registered_name": null
                    },
                    "bias_initializer": {
                      "module": "keras.initializers",
                      "class_name": "Zeros",
                      "config": {},
                      "registered_name": null
                    },
                    "kernel_regularizer": null,
                    "bias_regularizer": null,
                    "activity_regularizer": null,
                    "kernel_constraint": null,
                    "bias_constraint": null
                  },
                  "name": "conv4_block1_1_conv",
                  "inbound_nodes": [
                    {
                      "args": [
                        {
                          "class_name": "__keras_tensor__",
                          "config": {
                            "shape": [null, 11, 13, 512],
                            "dtype": "float32",
                            "keras_history": ["conv4_block1_preact_relu", 0, 0]
                          }
                        }
                      ],
                      "kwargs": {}
                    }
                  ]
                },
                {
                  "class_name": "BatchNormalization",
                  "config": {
                    "name": "conv4_block1_1_bn",
                    "trainable": false,
                    "dtype": "float32",
                    "axis": 3,
                    "momentum": 0.99,
                    "epsilon": 1.001e-5,
                    "center": true,
                    "scale": true,
                    "beta_initializer": {
                      "module": "keras.initializers",
                      "class_name": "Zeros",
                      "config": {},
                      "registered_name": null
                    },
                    "gamma_initializer": {
                      "module": "keras.initializers",
                      "class_name": "Ones",
                      "config": {},
                      "registered_name": null
                    },
                    "moving_mean_initializer": {
                      "module": "keras.initializers",
                      "class_name": "Zeros",
                      "config": {},
                      "registered_name": null
                    },
                    "moving_variance_initializer": {
                      "module": "keras.initializers",
                      "class_name": "Ones",
                      "config": {},
                      "registered_name": null
                    },
                    "beta_regularizer": null,
                    "gamma_regularizer": null,
                    "beta_constraint": null,
                    "gamma_constraint": null,
                    "synchronized": false
                  },
                  "name": "conv4_block1_1_bn",
                  "inbound_nodes": [
                    {
                      "args": [
                        {
                          "class_name": "__keras_tensor__",
                          "config": {
                            "shape": [null, 11, 13, 256],
                            "dtype": "float32",
                            "keras_history": ["conv4_block1_1_conv", 0, 0]
                          }
                        }
                      ],
                      "kwargs": { "mask": null }
                    }
                  ]
                },
                {
                  "class_name": "Activation",
                  "config": {
                    "name": "conv4_block1_1_relu",
                    "trainable": false,
                    "dtype": "float32",
                    "activation": "relu"
                  },
                  "name": "conv4_block1_1_relu",
                  "inbound_nodes": [
                    {
                      "args": [
                        {
                          "class_name": "__keras_tensor__",
                          "config": {
                            "shape": [null, 11, 13, 256],
                            "dtype": "float32",
                            "keras_history": ["conv4_block1_1_bn", 0, 0]
                          }
                        }
                      ],
                      "kwargs": {}
                    }
                  ]
                },
                {
                  "class_name": "ZeroPadding2D",
                  "config": {
                    "name": "conv4_block1_2_pad",
                    "trainable": false,
                    "dtype": "float32",
                    "padding": [
                      [1, 1],
                      [1, 1]
                    ],
                    "data_format": "channels_last"
                  },
                  "name": "conv4_block1_2_pad",
                  "inbound_nodes": [
                    {
                      "args": [
                        {
                          "class_name": "__keras_tensor__",
                          "config": {
                            "shape": [null, 11, 13, 256],
                            "dtype": "float32",
                            "keras_history": ["conv4_block1_1_relu", 0, 0]
                          }
                        }
                      ],
                      "kwargs": {}
                    }
                  ]
                },
                {
                  "class_name": "Conv2D",
                  "config": {
                    "name": "conv4_block1_2_conv",
                    "trainable": false,
                    "dtype": "float32",
                    "filters": 256,
                    "kernel_size": [3, 3],
                    "strides": [1, 1],
                    "padding": "valid",
                    "data_format": "channels_last",
                    "dilation_rate": [1, 1],
                    "groups": 1,
                    "activation": "linear",
                    "use_bias": false,
                    "kernel_initializer": {
                      "module": "keras.initializers",
                      "class_name": "GlorotUniform",
                      "config": { "seed": null },
                      "registered_name": null
                    },
                    "bias_initializer": {
                      "module": "keras.initializers",
                      "class_name": "Zeros",
                      "config": {},
                      "registered_name": null
                    },
                    "kernel_regularizer": null,
                    "bias_regularizer": null,
                    "activity_regularizer": null,
                    "kernel_constraint": null,
                    "bias_constraint": null
                  },
                  "name": "conv4_block1_2_conv",
                  "inbound_nodes": [
                    {
                      "args": [
                        {
                          "class_name": "__keras_tensor__",
                          "config": {
                            "shape": [null, 13, 15, 256],
                            "dtype": "float32",
                            "keras_history": ["conv4_block1_2_pad", 0, 0]
                          }
                        }
                      ],
                      "kwargs": {}
                    }
                  ]
                },
                {
                  "class_name": "BatchNormalization",
                  "config": {
                    "name": "conv4_block1_2_bn",
                    "trainable": false,
                    "dtype": "float32",
                    "axis": 3,
                    "momentum": 0.99,
                    "epsilon": 1.001e-5,
…
                },
                {
                  "class_name": "BatchNormalization",
                  "config": {
                    "name": "conv5_block3_2_bn",
                    "trainable": true,
                    "dtype": "float32",
                    "axis": 3,
                    "momentum": 0.99,
                    "epsilon": 1.001e-5,
                    "center": true,
                    "scale": true,
                    "beta_initializer": {
                      "module": "keras.initializers",
                      "class_name": "Zeros",
                      "config": {},
                      "registered_name": null
                    },
                    "gamma_initializer": {
                      "module": "keras.initializers",
                      "class_name": "Ones",
                      "config": {},
                      "registered_name": null
                    },
                    "moving_mean_initializer": {
                      "module": "keras.initializers",
                      "class_name": "Zeros",
                      "config": {},
                      "registered_name": null
                    },
                    "moving_variance_initializer": {
                      "module": "keras.initializers",
                      "class_name": "Ones",
                      "config": {},
                      "registered_name": null
                    },
                    "beta_regularizer": null,
                    "gamma_regularizer": null,
                    "beta_constraint": null,
                    "gamma_constraint": null,
                    "synchronized": false
                  },
                  "name": "conv5_block3_2_bn",
                  "inbound_nodes": [
                    {
                      "args": [
                        {
                          "class_name": "__keras_tensor__",
                          "config": {
                            "shape": [null, 6, 7, 512],
                            "dtype": "float32",
                            "keras_history": ["conv5_block3_2_conv", 0, 0]
                          }
                        }
                      ],
                      "kwargs": { "mask": null }
                    }
                  ]
                },
                {
                  "class_name": "Activation",
                  "config": {
                    "name": "conv5_block3_2_relu",
                    "trainable": true,
                    "dtype": "float32",
                    "activation": "relu"
                  },
                  "name": "conv5_block3_2_relu",
                  "inbound_nodes": [
                    {
                      "args": [
                        {
                          "class_name": "__keras_tensor__",
                          "config": {
                            "shape": [null, 6, 7, 512],
                            "dtype": "float32",
                            "keras_history": ["conv5_block3_2_bn", 0, 0]
                          }
                        }
                      ],
                      "kwargs": {}
                    }
                  ]
                },
                {
                  "class_name": "Conv2D",
                  "config": {
                    "name": "conv5_block3_3_conv",
                    "trainable": true,
                    "dtype": "float32",
                    "filters": 2048,
                    "kernel_size": [1, 1],
                    "strides": [1, 1],
                    "padding": "valid",
                    "data_format": "channels_last",
                    "dilation_rate": [1, 1],
                    "groups": 1,
                    "activation": "linear",
                    "use_bias": true,
                    "kernel_initializer": {
                      "module": "keras.initializers",
                      "class_name": "GlorotUniform",
                      "config": { "seed": null },
                      "registered_name": null
                    },
                    "bias_initializer": {
                      "module": "keras.initializers",
                      "class_name": "Zeros",
                      "config": {},
                      "registered_name": null
                    },
                    "kernel_regularizer": null,
                    "bias_regularizer": null,
                    "activity_regularizer": null,
                    "kernel_constraint": null,
                    "bias_constraint": null
                  },
                  "name": "conv5_block3_3_conv",
                  "inbound_nodes": [
                    {
                      "args": [
                        {
                          "class_name": "__keras_tensor__",
                          "config": {
                            "shape": [null, 6, 7, 512],
                            "dtype": "float32",
                            "keras_history": ["conv5_block3_2_relu", 0, 0]
                          }
                        }
                      ],
                      "kwargs": {}
                    }
                  ]
                },
                {
                  "class_name": "Add",
                  "config": {
                    "name": "conv5_block3_out",
                    "trainable": true,
                    "dtype": "float32"
                  },
                  "name": "conv5_block3_out",
                  "inbound_nodes": [
                    {
                      "args": [
                        [
                          {
                            "class_name": "__keras_tensor__",
                            "config": {
                              "shape": [null, 6, 7, 2048],
                              "dtype": "float32",
                              "keras_history": ["conv5_block2_out", 0, 0]
                            }
                          },
                          {
                            "class_name": "__keras_tensor__",
                            "config": {
                              "shape": [null, 6, 7, 2048],
                              "dtype": "float32",
                              "keras_history": ["conv5_block3_3_conv", 0, 0]
                            }
                          }
                        ]
                      ],
                      "kwargs": {}
                    }
                  ]
                },
                {
                  "class_name": "BatchNormalization",
                  "config": {
                    "name": "post_bn",
                    "trainable": true,
                    "dtype": "float32",
                    "axis": 3,
                    "momentum": 0.99,
                    "epsilon": 1.001e-5,
                    "center": true,
                    "scale": true,
                    "beta_initializer": {
                      "module": "keras.initializers",
                      "class_name": "Zeros",
                      "config": {},
                      "registered_name": null
                    },
                    "gamma_initializer": {
                      "module": "keras.initializers",
                      "class_name": "Ones",
                      "config": {},
                      "registered_name": null
                    },
                    "moving_mean_initializer": {
                      "module": "keras.initializers",
                      "class_name": "Zeros",
                      "config": {},
                      "registered_name": null
                    },
                    "moving_variance_initializer": {
                      "module": "keras.initializers",
                      "class_name": "Ones",
                      "config": {},
                      "registered_name": null
                    },
                    "beta_regularizer": null,
                    "gamma_regularizer": null,
                    "beta_constraint": null,
                    "gamma_constraint": null,
                    "synchronized": false
                  },
                  "name": "post_bn",
                  "inbound_nodes": [
                    {
                      "args": [
                        {
                          "class_name": "__keras_tensor__",
                          "config": {
                            "shape": [null, 6, 7, 2048],
                            "dtype": "float32",
                            "keras_history": ["conv5_block3_out", 0, 0]
                          }
                        }
                      ],
                      "kwargs": { "mask": null }
                    }
                  ]
                },
                {
                  "class_name": "Activation",
                  "config": {
                    "name": "post_relu",
                    "trainable": true,
                    "dtype": "float32",
                    "activation": "relu"
                  },
                  "name": "post_relu",
                  "inbound_nodes": [
                    {
                      "args": [
                        {
                          "class_name": "__keras_tensor__",
                          "config": {
                            "shape": [null, 6, 7, 2048],
                            "dtype": "float32",
                            "keras_history": ["post_bn", 0, 0]
                          }
                        }
                      ],
                      "kwargs": {}
                    }
                  ]
                }
              ],
              "input_layers": [["input_layer", 0, 0]],
              "output_layers": [["post_relu", 0, 0]]
            },
            "name": "resnet50v2",
            "inbound_nodes": [
              {
                "args": [
                  {
                    "class_name": "__keras_tensor__",
                    "config": {
                      "shape": [null, 176, 208, 3],
                      "dtype": "float32",
                      "keras_history": ["rescaling", 0, 0]
                    }
                  }
                ],
                "kwargs": { "training": false, "mask": null }
              }
            ]
          },
          {
            "class_name": "GlobalAveragePooling2D",
            "config": {
              "name": "global_average_pooling2d",
              "trainable": true,
              "dtype": "float32",
              "data_format": "channels_last",
              "keepdims": false
            },
            "name": "global_average_pooling2d",
            "inbound_nodes": [
              {
                "args": [
                  {
                    "class_name": "__keras_tensor__",
                    "config": {
                      "shape": [null, 6, 7, 2048],
                      "dtype": "float32",
                      "keras_history": ["resnet50v2", 0, 0]
                    }
                  }
                ],
                "kwargs": {}
              }
            ]
          },
          {
            "class_name": "Dropout",
            "config": {
              "name": "dropout_1",
              "trainable": true,
              "dtype": "float32",
              "rate": 0.2,
              "seed": null,
              "noise_shape": null
            },
            "name": "dropout_1",
            "inbound_nodes": [
              {
                "args": [
                  {
                    "class_name": "__keras_tensor__",
                    "config": {
                      "shape": [null, 2048],
                      "dtype": "float32",
                      "keras_history": ["global_average_pooling2d", 0, 0]
                    }
                  }
                ],
                "kwargs": { "training": false }
              }
            ]
          },
          {
            "class_name": "Dense",
            "config": {
              "name": "dense",
              "trainable": true,
              "dtype": "float32",
              "units": 4,
              "activation": "softmax",
              "use_bias": true,
              "kernel_initializer": {
                "module": "keras.initializers",
                "class_name": "GlorotUniform",
                "config": { "seed": null },
                "registered_name": null
              },
              "bias_initializer": {
                "module": "keras.initializers",
                "class_name": "Zeros",
                "config": {},
                "registered_name": null
              },
              "kernel_regularizer": null,
              "bias_regularizer": null,
              "kernel_constraint": null,
              "bias_constraint": null
            },
            "name": "dense",
            "inbound_nodes": [
              {
                "args": [
                  {
                    "class_name": "__keras_tensor__",
                    "config": {
                      "shape": [null, 2048],
                      "dtype": "float32",
                      "keras_history": ["dropout_1", 0, 0]
                    }
                  }
                ],
                "kwargs": {}
              }
            ]
          }
        ],
        "input_layers": [["input_layer_2", 0, 0]],
        "output_layers": [["dense", 0, 0]]
      }
    },
    "training_config": {
      "loss": "categorical_crossentropy",
      "loss_weights": null,
      "metrics": [
        {
          "class_name": "AUC",
          "config": {
            "name": "auc",
            "dtype": "float32",
            "num_thresholds": 200,
            "curve": "ROC",
            "summation_method": "interpolation",
            "multi_label": false,
            "num_labels": null,
            "label_weights": null,
            "from_logits": false
          }
        },
        {
          "class_name": "F1Score",
          "config": {
            "name": "f1",
            "dtype": "float32",
            "average": "weighted",
            "threshold": null
          }
        },
        {
          "class_name": "CategoricalAccuracy",
          "config": { "name": "acc", "dtype": "float32" }
        }
      ],
      "weighted_metrics": null,
      "run_eagerly": false,
      "steps_per_execution": 1,
      "jit_compile": false,
      "optimizer_config": {
        "class_name": "Adadelta",
        "config": {
          "name": "adadelta",
          "learning_rate": 0.0010000000474974513,
          "weight_decay": null,
          "clipnorm": null,
          "global_clipnorm": null,
          "clipvalue": null,
          "use_ema": false,
          "ema_momentum": 0.99,
          "ema_overwrite_frequency": null,
          "loss_scale_factor": null,
          "gradient_accumulation_steps": null,
          "rho": 0.95,
          "epsilon": 1e-7
        }
      }
    }
  },
  "weightsManifest": [
    {
      "paths": [
        "group1-shard1of23.bin",
        "group1-shard2of23.bin",
        "group1-shard3of23.bin",
        "group1-shard4of23.bin",
        "group1-shard5of23.bin",
        "group1-shard6of23.bin",
        "group1-shard7of23.bin",
        "group1-shard8of23.bin",
        "group1-shard9of23.bin",
        "group1-shard10of23.bin",
        "group1-shard11of23.bin",
        "group1-shard12of23.bin",
        "group1-shard13of23.bin",
        "group1-shard14of23.bin",
        "group1-shard15of23.bin",
        "group1-shard16of23.bin",
        "group1-shard17of23.bin",
        "group1-shard18of23.bin",
        "group1-shard19of23.bin",
        "group1-shard20of23.bin",
        "group1-shard21of23.bin",
        "group1-shard22of23.bin",
        "group1-shard23of23.bin"
      ],
      "weights": [
        { "name": "dense/kernel", "shape": [2048, 4], "dtype": "float32" },
        { "name": "dense/bias", "shape": [4], "dtype": "float32" },
        {
          "name": "conv4_block4_2_conv/kernel",
          "shape": [3, 3, 256, 256],
          "dtype": "float32"
        },
        {
          "name": "conv4_block4_2_bn/gamma",
          "shape": [256],
          "dtype": "float32"
        },
        {
          "name": "conv4_block4_2_bn/beta",
          "shape": [256],
          "dtype": "float32"
        },
        {
          "name": "conv4_block4_3_conv/kernel",
          "shape": [1, 1, 256, 1024],
          "dtype": "float32"
        },
        {
          "name": "conv4_block4_3_conv/bias",
          "shape": [1024],
          "dtype": "float32"
        },
        {
          "name": "conv4_block5_preact_bn/gamma",
          "shape": [1024],
          "dtype": "float32"
        },
        {
          "name": "conv4_block5_preact_bn/beta",
          "shape": [1024],
          "dtype": "float32"
        },
        {
          "name": "conv4_block5_1_conv/kernel",
          "shape": [1, 1, 1024, 256],
          "dtype": "float32"
        },
        {
          "name": "conv4_block5_1_bn/gamma",
          "shape": [256],
          "dtype": "float32"
        },
        {
          "name": "conv4_block5_1_bn/beta",
          "shape": [256],
          "dtype": "float32"
        },
        {
          "name": "conv4_block5_2_conv/kernel",
          "shape": [3, 3, 256, 256],
          "dtype": "float32"
        },
        {
          "name": "conv4_block5_2_bn/gamma",
          "shape": [256],
          "dtype": "float32"
        },
        {
          "name": "conv4_block5_2_bn/beta",
          "shape": [256],
          "dtype": "float32"
        },
        {
          "name": "conv4_block5_3_conv/kernel",
          "shape": [1, 1, 256, 1024],
          "dtype": "float32"
        },
        {
          "name": "conv4_block5_3_conv/bias",
          "shape": [1024],
          "dtype": "float32"
        },
        {
          "name": "conv4_block6_preact_bn/gamma",
          "shape": [1024],
          "dtype": "float32"
        },
        {
          "name": "conv4_block6_preact_bn/beta",
          "shape": [1024],
          "dtype": "float32"
        },
        {
          "name": "conv4_block6_1_conv/kernel",
          "shape": [1, 1, 1024, 256],
          "dtype": "float32"
        },
        {
          "name": "conv4_block6_1_bn/gamma",
          "shape": [256],
          "dtype": "float32"
        },
        {
          "name": "conv4_block6_1_bn/beta",
          "shape": [256],
          "dtype": "float32"
        },
        {
          "name": "conv4_block6_2_conv/kernel",
          "shape": [3, 3, 256, 256],
          "dtype": "float32"
        },
        {
          "name": "conv4_block6_2_bn/gamma",
          "shape": [256],
          "dtype": "float32"
        },
        {
          "name": "conv4_block6_2_bn/beta",
          "shape": [256],
          "dtype": "float32"
        },
        {
          "name": "conv4_block6_3_conv/kernel",
          "shape": [1, 1, 256, 1024],
          "dtype": "float32"
        },
        {
          "name": "conv4_block6_3_conv/bias",
          "shape": [1024],
          "dtype": "float32"
        },
        {
          "name": "conv5_block1_preact_bn/gamma",
          "shape": [1024],
          "dtype": "float32"
        },
        {
          "name": "conv5_block1_preact_bn/beta",
          "shape": [1024],
          "dtype": "float32"
        },
        {
          "name": "conv5_block1_1_conv/kernel",
          "shape": [1, 1, 1024, 512],
          "dtype": "float32"
        },
        {
          "name": "conv5_block1_1_bn/gamma",
          "shape": [512],
          "dtype": "float32"
        },
        {
          "name": "conv5_block1_1_bn/beta",
          "shape": [512],
          "dtype": "float32"
        },
        {
          "name": "conv5_block1_2_conv/kernel",
          "shape": [3, 3, 512, 512],
          "dtype": "float32"
        },
        {
          "name": "conv5_block1_2_bn/gamma",
          "shape": [512],
          "dtype": "float32"
        },
        {
          "name": "conv5_block1_2_bn/beta",
          "shape": [512],
          "dtype": "float32"
        },
        {
          "name": "conv5_block1_0_conv/kernel",
          "shape": [1, 1, 1024, 2048],
          "dtype": "float32"
        },
        {
          "name": "conv5_block1_0_conv/bias",
          "shape": [2048],
          "dtype": "float32"
        },
        {
          "name": "conv5_block1_3_conv/kernel",
          "shape": [1, 1, 512, 2048],
          "dtype": "float32"
        },
        {
          "name": "conv5_block1_3_conv/bias",
          "shape": [2048],
          "dtype": "float32"
        },
        {
          "name": "conv5_block2_preact_bn/gamma",
          "shape": [2048],
          "dtype": "float32"
        },
        {
          "name": "conv5_block2_preact_bn/beta",
          "shape": [2048],
          "dtype": "float32"
        },
        {
          "name": "conv5_block2_1_conv/kernel",
          "shape": [1, 1, 2048, 512],
          "dtype": "float32"
        },
        {
          "name": "conv5_block2_1_bn/gamma",
          "shape": [512],
          "dtype": "float32"
        },
        {
          "name": "conv5_block2_1_bn/beta",
          "shape": [512],
          "dtype": "float32"
        },
        {
          "name": "conv5_block2_2_conv/kernel",
          "shape": [3, 3, 512, 512],
          "dtype": "float32"
        },
        {
          "name": "conv5_block2_2_bn/gamma",
          "shape": [512],
          "dtype": "float32"
        },
        {
          "name": "conv5_block2_2_bn/beta",
          "shape": [512],
          "dtype": "float32"
        },
        {
          "name": "conv5_block2_3_conv/kernel",
          "shape": [1, 1, 512, 2048],
          "dtype": "float32"
        },
        {
          "name": "conv5_block2_3_conv/bias",
          "shape": [2048],
          "dtype": "float32"
        },
        {
          "name": "conv5_block3_preact_bn/gamma",
          "shape": [2048],
          "dtype": "float32"
        },
        {
          "name": "conv5_block3_preact_bn/beta",
          "shape": [2048],
          "dtype": "float32"
        },
        {
          "name": "conv5_block3_1_conv/kernel",
          "shape": [1, 1, 2048, 512],
          "dtype": "float32"
        },
        {
          "name": "conv5_block3_1_bn/gamma",
          "shape": [512],
          "dtype": "float32"
        },
        {
          "name": "conv5_block3_1_bn/beta",
          "shape": [512],
          "dtype": "float32"
        },
        {
          "name": "conv5_block3_2_conv/kernel",
          "shape": [3, 3, 512, 512],
          "dtype": "float32"
        },
        {
          "name": "conv5_block3_2_bn/gamma",
          "shape": [512],
          "dtype": "float32"
        },
        {
          "name": "conv5_block3_2_bn/beta",
          "shape": [512],
          "dtype": "float32"
        },
        {
          "name": "conv5_block3_3_conv/kernel",
          "shape": [1, 1, 512, 2048],
          "dtype": "float32"
        },
        {
          "name": "conv5_block3_3_conv/bias",
          "shape": [2048],
          "dtype": "float32"
        },
        { "name": "post_bn/gamma", "shape": [2048], "dtype": "float32" },
        { "name": "post_bn/beta", "shape": [2048], "dtype": "float32" },
        {
          "name": "conv1_conv/kernel",
          "shape": [7, 7, 3, 64],
          "dtype": "float32"
        },
        { "name": "conv1_conv/bias", "shape": [64], "dtype": "float32" },
        {
          "name": "conv2_block1_preact_bn/gamma",
          "shape": [64],
          "dtype": "float32"
        },
        {
          "name": "conv2_block1_preact_bn/beta",
          "shape": [64],
          "dtype": "float32"
        },
        {
          "name": "conv2_block1_preact_bn/moving_mean",
          "shape": [64],
          "dtype": "float32"
        },
        {
          "name": "conv2_block1_preact_bn/moving_variance",
          "shape": [64],
          "dtype": "float32"
        },
        {
          "name": "conv2_block1_1_conv/kernel",
          "shape": [1, 1, 64, 64],
          "dtype": "float32"
        },
        {
          "name": "conv2_block1_1_bn/gamma",
          "shape": [64],
          "dtype": "float32"
        },
        { "name": "conv2_block1_1_bn/beta", "shape": [64], "dtype": "float32" },
        {
          "name": "conv2_block1_1_bn/moving_mean",
          "shape": [64],
          "dtype": "float32"
        },
        {
          "name": "conv2_block1_1_bn/moving_variance",
          "shape": [64],
          "dtype": "float32"
        },
        {
          "name": "conv2_block1_2_conv/kernel",
          "shape": [3, 3, 64, 64],
          "dtype": "float32"
        },
        {
          "name": "conv2_block1_2_bn/gamma",
          "shape": [64],
          "dtype": "float32"
        },
        { "name": "conv2_block1_2_bn/beta", "shape": [64], "dtype": "float32" },
        {
          "name": "conv2_block1_2_bn/moving_mean",
          "shape": [64],
          "dtype": "float32"
        },
        {
          "name": "conv2_block1_2_bn/moving_variance",
          "shape": [64],
          "dtype": "float32"
        },
        {
          "name": "conv2_block1_0_conv/kernel",
          "shape": [1, 1, 64, 256],
          "dtype": "float32"
        },
        {
          "name": "conv2_block1_0_conv/bias",
          "shape": [256],
          "dtype": "float32"
        },
        {
          "name": "conv2_block1_3_conv/kernel",
          "shape": [1, 1, 64, 256],
          "dtype": "float32"
        },
        {
          "name": "conv2_block1_3_conv/bias",
          "shape": [256],
          "dtype": "float32"
        },
        {
          "name": "conv2_block2_preact_bn/gamma",
          "shape": [256],
          "dtype": "float32"
        },
        {
          "name": "conv2_block2_preact_bn/beta",
          "shape": [256],
          "dtype": "float32"
        },
        {
          "name": "conv2_block2_preact_bn/moving_mean",
          "shape": [256],
          "dtype": "float32"
        },
        {
          "name": "conv2_block2_preact_bn/moving_variance",
          "shape": [256],
          "dtype": "float32"
        },
        {
          "name": "conv2_block2_1_conv/kernel",
          "shape": [1, 1, 256, 64],
          "dtype": "float32"
        },
        {
          "name": "conv2_block2_1_bn/gamma",
          "shape": [64],
          "dtype": "float32"
        },
        { "name": "conv2_block2_1_bn/beta", "shape": [64], "dtype": "float32" },
        {
          "name": "conv2_block2_1_bn/moving_mean",
          "shape": [64],
          "dtype": "float32"
        },
        {
          "name": "conv2_block2_1_bn/moving_variance",
          "shape": [64],
          "dtype": "float32"
        },
        {
          "name": "conv2_block2_2_conv/kernel",
          "shape": [3, 3, 64, 64],
          "dtype": "float32"
        },
        {
          "name": "conv2_block2_2_bn/gamma",
          "shape": [64],
          "dtype": "float32"
        },
        { "name": "conv2_block2_2_bn/beta", "shape": [64], "dtype": "float32" },
        {
          "name": "conv2_block2_2_bn/moving_mean",
          "shape": [64],
          "dtype": "float32"
        },
        {
          "name": "conv2_block2_2_bn/moving_variance",
          "shape": [64],
          "dtype": "float32"
        },
        {
          "name": "conv2_block2_3_conv/kernel",
          "shape": [1, 1, 64, 256],
          "dtype": "float32"
        },
        {
          "name": "conv2_block2_3_conv/bias",
          "shape": [256],
          "dtype": "float32"
        },
        {
          "name": "conv2_block3_preact_bn/gamma",
          "shape": [256],
          "dtype": "float32"
        },
        {
          "name": "conv2_block3_preact_bn/beta",
          "shape": [256],
          "dtype": "float32"
        },
        {
          "name": "conv2_block3_preact_bn/moving_mean",
          "shape": [256],
          "dtype": "float32"
        },
        {
          "name": "conv2_block3_preact_bn/moving_variance",
          "shape": [256],
          "dtype": "float32"
        },
        {
          "name": "conv2_block3_1_conv/kernel",
          "shape": [1, 1, 256, 64],
          "dtype": "float32"
        },
        {
          "name": "conv2_block3_1_bn/gamma",
          "shape": [64],
          "dtype": "float32"
        },
        { "name": "conv2_block3_1_bn/beta", "shape": [64], "dtype": "float32" },
        {
          "name": "conv2_block3_1_bn/moving_mean",
          "shape": [64],
          "dtype": "float32"
        },
        {
          "name": "conv2_block3_1_bn/moving_variance",
          "shape": [64],
          "dtype": "float32"
        },
        {
          "name": "conv2_block3_2_conv/kernel",
          "shape": [3, 3, 64, 64],
          "dtype": "float32"
        },
        {
          "name": "conv2_block3_2_bn/gamma",
          "shape": [64],
          "dtype": "float32"
        },
        { "name": "conv2_block3_2_bn/beta", "shape": [64], "dtype": "float32" },
        {
          "name": "conv2_block3_2_bn/moving_mean",
          "shape": [64],
          "dtype": "float32"
        },
        {
          "name": "conv2_block3_2_bn/moving_variance",
          "shape": [64],
          "dtype": "float32"
        },
        {
          "name": "conv2_block3_3_conv/kernel",
          "shape": [1, 1, 64, 256],
          "dtype": "float32"
        },
        {
          "name": "conv2_block3_3_conv/bias",
          "shape": [256],
          "dtype": "float32"
        },
        {
          "name": "conv3_block1_preact_bn/gamma",
          "shape": [256],
          "dtype": "float32"
        },
        {
          "name": "conv3_block1_preact_bn/beta",
          "shape": [256],
          "dtype": "float32"
        },
        {
          "name": "conv3_block1_preact_bn/moving_mean",
          "shape": [256],
          "dtype": "float32"
        },
        {
          "name": "conv3_block1_preact_bn/moving_variance",
          "shape": [256],
          "dtype": "float32"
        },
        {
          "name": "conv3_block1_1_conv/kernel",
          "shape": [1, 1, 256, 128],
          "dtype": "float32"
        },
        {
          "name": "conv3_block1_1_bn/gamma",
          "shape": [128],
          "dtype": "float32"
        },
        {
          "name": "conv3_block1_1_bn/beta",
          "shape": [128],
          "dtype": "float32"
        },
        {
          "name": "conv3_block1_1_bn/moving_mean",
          "shape": [128],
          "dtype": "float32"
        },
        {
          "name": "conv3_block1_1_bn/moving_variance",
          "shape": [128],
          "dtype": "float32"
        },
        {
          "name": "conv3_block1_2_conv/kernel",
          "shape": [3, 3, 128, 128],
          "dtype": "float32"
        },
        {
          "name": "conv3_block1_2_bn/gamma",
          "shape": [128],
          "dtype": "float32"
        },
        {
          "name": "conv3_block1_2_bn/beta",
          "shape": [128],
          "dtype": "float32"
        },
        {
          "name": "conv3_block1_2_bn/moving_mean",
          "shape": [128],
          "dtype": "float32"
        },
        {
          "name": "conv3_block1_2_bn/moving_variance",
          "shape": [128],
          "dtype": "float32"
        },
        {
          "name": "conv3_block1_0_conv/kernel",
          "shape": [1, 1, 256, 512],
          "dtype": "float32"
        },
        {
          "name": "conv3_block1_0_conv/bias",
          "shape": [512],
          "dtype": "float32"
        },
        {
          "name": "conv3_block1_3_conv/kernel",
          "shape": [1, 1, 128, 512],
          "dtype": "float32"
        },
        {
          "name": "conv3_block1_3_conv/bias",
          "shape": [512],
          "dtype": "float32"
        },
        {
          "name": "conv3_block2_preact_bn/gamma",
          "shape": [512],
          "dtype": "float32"
        },
        {
          "name": "conv3_block2_preact_bn/beta",
          "shape": [512],
          "dtype": "float32"
        },
        {
          "name": "conv3_block2_preact_bn/moving_mean",
          "shape": [512],
          "dtype": "float32"
        },
        {
          "name": "conv3_block2_preact_bn/moving_variance",
          "shape": [512],
          "dtype": "float32"
        },
        {
          "name": "conv3_block2_1_conv/kernel",
          "shape": [1, 1, 512, 128],
          "dtype": "float32"
        },
        {
          "name": "conv3_block2_1_bn/gamma",
          "shape": [128],
          "dtype": "float32"
        },
        {
          "name": "conv3_block2_1_bn/beta",
          "shape": [128],
          "dtype": "float32"
        },
        {
          "name": "conv3_block2_1_bn/moving_mean",
          "shape": [128],
          "dtype": "float32"
        },
        {
          "name": "conv3_block2_1_bn/moving_variance",
          "shape": [128],
          "dtype": "float32"
        },
        {
          "name": "conv3_block2_2_conv/kernel",
          "shape": [3, 3, 128, 128],
          "dtype": "float32"
        },
        {
          "name": "conv3_block2_2_bn/gamma",
          "shape": [128],
          "dtype": "float32"
        },
        {
          "name": "conv3_block2_2_bn/beta",
          "shape": [128],
          "dtype": "float32"
        },
        {
          "name": "conv3_block2_2_bn/moving_mean",
          "shape": [128],
          "dtype": "float32"
        },
        {
          "name": "conv3_block2_2_bn/moving_variance",
          "shape": [128],
          "dtype": "float32"
        },
        {
          "name": "conv3_block2_3_conv/kernel",
          "shape": [1, 1, 128, 512],
          "dtype": "float32"
        },
        {
          "name": "conv3_block2_3_conv/bias",
          "shape": [512],
          "dtype": "float32"
        },
        {
          "name": "conv3_block3_preact_bn/gamma",
          "shape": [512],
          "dtype": "float32"
        },
        {
          "name": "conv3_block3_preact_bn/beta",
          "shape": [512],
          "dtype": "float32"
        },
        {
          "name": "conv3_block3_preact_bn/moving_mean",
          "shape": [512],
          "dtype": "float32"
        },
        {
          "name": "conv3_block3_preact_bn/moving_variance",
          "shape": [512],
          "dtype": "float32"
        },
        {
          "name": "conv3_block3_1_conv/kernel",
          "shape": [1, 1, 512, 128],
          "dtype": "float32"
        },
        {
          "name": "conv3_block3_1_bn/gamma",
          "shape": [128],
          "dtype": "float32"
        },
        {
          "name": "conv3_block3_1_bn/beta",
          "shape": [128],
          "dtype": "float32"
        },
        {
          "name": "conv3_block3_1_bn/moving_mean",
          "shape": [128],
          "dtype": "float32"
        },
        {
          "name": "conv3_block3_1_bn/moving_variance",
          "shape": [128],
          "dtype": "float32"
        },
        {
          "name": "conv3_block3_2_conv/kernel",
          "shape": [3, 3, 128, 128],
          "dtype": "float32"
        },
        {
          "name": "conv3_block3_2_bn/gamma",
          "shape": [128],
          "dtype": "float32"
        },
        {
          "name": "conv3_block3_2_bn/beta",
          "shape": [128],
          "dtype": "float32"
        },
        {
          "name": "conv3_block3_2_bn/moving_mean",
          "shape": [128],
          "dtype": "float32"
        },
        {
          "name": "conv3_block3_2_bn/moving_variance",
          "shape": [128],
          "dtype": "float32"
        },
        {
          "name": "conv3_block3_3_conv/kernel",
          "shape": [1, 1, 128, 512],
          "dtype": "float32"
        },
        {
          "name": "conv3_block3_3_conv/bias",
          "shape": [512],
          "dtype": "float32"
        },
        {
          "name": "conv3_block4_preact_bn/gamma",
          "shape": [512],
          "dtype": "float32"
        },
        {
          "name": "conv3_block4_preact_bn/beta",
          "shape": [512],
          "dtype": "float32"
        },
        {
          "name": "conv3_block4_preact_bn/moving_mean",
          "shape": [512],
          "dtype": "float32"
        },
        {
          "name": "conv3_block4_preact_bn/moving_variance",
          "shape": [512],
          "dtype": "float32"
        },
        {
          "name": "conv3_block4_1_conv/kernel",
          "shape": [1, 1, 512, 128],
          "dtype": "float32"
        },
        {
          "name": "conv3_block4_1_bn/gamma",
          "shape": [128],
          "dtype": "float32"
        },
        {
          "name": "conv3_block4_1_bn/beta",
          "shape": [128],
          "dtype": "float32"
        },
        {
          "name": "conv3_block4_1_bn/moving_mean",
          "shape": [128],
          "dtype": "float32"
        },
        {
          "name": "conv3_block4_1_bn/moving_variance",
          "shape": [128],
          "dtype": "float32"
        },
        {
          "name": "conv3_block4_2_conv/kernel",
          "shape": [3, 3, 128, 128],
          "dtype": "float32"
        },
        {
          "name": "conv3_block4_2_bn/gamma",
          "shape": [128],
          "dtype": "float32"
        },
        {
          "name": "conv3_block4_2_bn/beta",
          "shape": [128],
          "dtype": "float32"
        },
        {
          "name": "conv3_block4_2_bn/moving_mean",
          "shape": [128],
          "dtype": "float32"
        },
        {
          "name": "conv3_block4_2_bn/moving_variance",
          "shape": [128],
          "dtype": "float32"
        },
        {
          "name": "conv3_block4_3_conv/kernel",
          "shape": [1, 1, 128, 512],
          "dtype": "float32"
        },
        {
          "name": "conv3_block4_3_conv/bias",
          "shape": [512],
          "dtype": "float32"
        },
        {
          "name": "conv4_block1_preact_bn/gamma",
          "shape": [512],
          "dtype": "float32"
        },
        {
          "name": "conv4_block1_preact_bn/beta",
          "shape": [512],
          "dtype": "float32"
        },
        {
          "name": "conv4_block1_preact_bn/moving_mean",
          "shape": [512],
          "dtype": "float32"
        },
        {
          "name": "conv4_block1_preact_bn/moving_variance",
          "shape": [512],
          "dtype": "float32"
        },
        {
          "name": "conv4_block1_1_conv/kernel",
          "shape": [1, 1, 512, 256],
          "dtype": "float32"
        },
        {
          "name": "conv4_block1_1_bn/gamma",
          "shape": [256],
          "dtype": "float32"
        },
        {
          "name": "conv4_block1_1_bn/beta",
          "shape": [256],
          "dtype": "float32"
        },
        {
          "name": "conv4_block1_1_bn/moving_mean",
          "shape": [256],
          "dtype": "float32"
        },
        {
          "name": "conv4_block1_1_bn/moving_variance",
          "shape": [256],
          "dtype": "float32"
        },
        {
          "name": "conv4_block1_2_conv/kernel",
          "shape": [3, 3, 256, 256],
          "dtype": "float32"
        },
        {
          "name": "conv4_block1_2_bn/gamma",
          "shape": [256],
          "dtype": "float32"
        },
        {
          "name": "conv4_block1_2_bn/beta",
          "shape": [256],
          "dtype": "float32"
        },
        {
          "name": "conv4_block1_2_bn/moving_mean",
          "shape": [256],
          "dtype": "float32"
        },
        {
          "name": "conv4_block1_2_bn/moving_variance",
          "shape": [256],
          "dtype": "float32"
        },
        {
          "name": "conv4_block1_0_conv/kernel",
          "shape": [1, 1, 512, 1024],
          "dtype": "float32"
        },
        {
          "name": "conv4_block1_0_conv/bias",
          "shape": [1024],
          "dtype": "float32"
        },
        {
          "name": "conv4_block1_3_conv/kernel",
          "shape": [1, 1, 256, 1024],
          "dtype": "float32"
        },
        {
          "name": "conv4_block1_3_conv/bias",
          "shape": [1024],
          "dtype": "float32"
        },
        {
          "name": "conv4_block2_preact_bn/gamma",
          "shape": [1024],
          "dtype": "float32"
        },
        {
          "name": "conv4_block2_preact_bn/beta",
          "shape": [1024],
          "dtype": "float32"
        },
        {
          "name": "conv4_block2_preact_bn/moving_mean",
          "shape": [1024],
          "dtype": "float32"
        },
        {
          "name": "conv4_block2_preact_bn/moving_variance",
          "shape": [1024],
          "dtype": "float32"
        },
        {
          "name": "conv4_block2_1_conv/kernel",
          "shape": [1, 1, 1024, 256],
          "dtype": "float32"
        },
        {
          "name": "conv4_block2_1_bn/gamma",
          "shape": [256],
          "dtype": "float32"
        },
        {
          "name": "conv4_block2_1_bn/beta",
          "shape": [256],
          "dtype": "float32"
        },
        {
          "name": "conv4_block2_1_bn/moving_mean",
          "shape": [256],
          "dtype": "float32"
        },
        {
          "name": "conv4_block2_1_bn/moving_variance",
          "shape": [256],
          "dtype": "float32"
        },
        {
          "name": "conv4_block2_2_conv/kernel",
          "shape": [3, 3, 256, 256],
          "dtype": "float32"
        },
        {
          "name": "conv4_block2_2_bn/gamma",
          "shape": [256],
          "dtype": "float32"
        },
        {
          "name": "conv4_block2_2_bn/beta",
          "shape": [256],
          "dtype": "float32"
        },
        {
          "name": "conv4_block2_2_bn/moving_mean",
          "shape": [256],
          "dtype": "float32"
        },
        {
          "name": "conv4_block2_2_bn/moving_variance",
          "shape": [256],
          "dtype": "float32"
        },
        {
          "name": "conv4_block2_3_conv/kernel",
          "shape": [1, 1, 256, 1024],
          "dtype": "float32"
        },
        {
          "name": "conv4_block2_3_conv/bias",
          "shape": [1024],
          "dtype": "float32"
        },
        {
          "name": "conv4_block3_preact_bn/gamma",
          "shape": [1024],
          "dtype": "float32"
        },
        {
          "name": "conv4_block3_preact_bn/beta",
          "shape": [1024],
          "dtype": "float32"
        },
        {
          "name": "conv4_block3_preact_bn/moving_mean",
          "shape": [1024],
          "dtype": "float32"
        },
        {
          "name": "conv4_block3_preact_bn/moving_variance",
          "shape": [1024],
          "dtype": "float32"
        },
        {
          "name": "conv4_block3_1_conv/kernel",
          "shape": [1, 1, 1024, 256],
          "dtype": "float32"
        },
        {
          "name": "conv4_block3_1_bn/gamma",
          "shape": [256],
          "dtype": "float32"
        },
        {
          "name": "conv4_block3_1_bn/beta",
          "shape": [256],
          "dtype": "float32"
        },
        {
          "name": "conv4_block3_1_bn/moving_mean",
          "shape": [256],
          "dtype": "float32"
        },
        {
          "name": "conv4_block3_1_bn/moving_variance",
          "shape": [256],
          "dtype": "float32"
        },
        {
          "name": "conv4_block3_2_conv/kernel",
          "shape": [3, 3, 256, 256],
          "dtype": "float32"
        },
        {
          "name": "conv4_block3_2_bn/gamma",
          "shape": [256],
          "dtype": "float32"
        },
        {
          "name": "conv4_block3_2_bn/beta",
          "shape": [256],
          "dtype": "float32"
        },
        {
          "name": "conv4_block3_2_bn/moving_mean",
          "shape": [256],
          "dtype": "float32"
        },
        {
          "name": "conv4_block3_2_bn/moving_variance",
          "shape": [256],
          "dtype": "float32"
        },
        {
          "name": "conv4_block3_3_conv/kernel",
          "shape": [1, 1, 256, 1024],
          "dtype": "float32"
        },
        {
          "name": "conv4_block3_3_conv/bias",
          "shape": [1024],
          "dtype": "float32"
        },
        {
          "name": "conv4_block4_preact_bn/gamma",
          "shape": [1024],
          "dtype": "float32"
        },
        {
          "name": "conv4_block4_preact_bn/beta",
          "shape": [1024],
          "dtype": "float32"
        },
        {
          "name": "conv4_block4_preact_bn/moving_mean",
          "shape": [1024],
          "dtype": "float32"
        },
        {
          "name": "conv4_block4_preact_bn/moving_variance",
          "shape": [1024],
          "dtype": "float32"
        },
        {
          "name": "conv4_block4_1_conv/kernel",
          "shape": [1, 1, 1024, 256],
          "dtype": "float32"
        },
        {
          "name": "conv4_block4_1_bn/gamma",
          "shape": [256],
          "dtype": "float32"
        },
        {
          "name": "conv4_block4_1_bn/beta",
          "shape": [256],
          "dtype": "float32"
        },
        {
          "name": "conv4_block4_1_bn/moving_mean",
          "shape": [256],
          "dtype": "float32"
        },
        {
          "name": "conv4_block4_1_bn/moving_variance",
          "shape": [256],
          "dtype": "float32"
        },
        {
          "name": "conv4_block4_2_bn/moving_mean",
          "shape": [256],
          "dtype": "float32"
        },
        {
          "name": "conv4_block4_2_bn/moving_variance",
          "shape": [256],
          "dtype": "float32"
        },
        {
          "name": "conv4_block5_preact_bn/moving_mean",
          "shape": [1024],
          "dtype": "float32"
        },
        {
          "name": "conv4_block5_preact_bn/moving_variance",
          "shape": [1024],
          "dtype": "float32"
        },
        {
          "name": "conv4_block5_1_bn/moving_mean",
          "shape": [256],
          "dtype": "float32"
        },
        {
          "name": "conv4_block5_1_bn/moving_variance",
          "shape": [256],
          "dtype": "float32"
        },
        {
          "name": "conv4_block5_2_bn/moving_mean",
          "shape": [256],
          "dtype": "float32"
        },
        {
          "name": "conv4_block5_2_bn/moving_variance",
          "shape": [256],
          "dtype": "float32"
        },
        {
          "name": "conv4_block6_preact_bn/moving_mean",
          "shape": [1024],
          "dtype": "float32"
        },
        {
          "name": "conv4_block6_preact_bn/moving_variance",
          "shape": [1024],
          "dtype": "float32"
        },
        {
          "name": "conv4_block6_1_bn/moving_mean",
          "shape": [256],
          "dtype": "float32"
        },
        {
          "name": "conv4_block6_1_bn/moving_variance",
          "shape": [256],
          "dtype": "float32"
        },
        {
          "name": "conv4_block6_2_bn/moving_mean",
          "shape": [256],
          "dtype": "float32"
        },
        {
          "name": "conv4_block6_2_bn/moving_variance",
          "shape": [256],
          "dtype": "float32"
        },
        {
          "name": "conv5_block1_preact_bn/moving_mean",
          "shape": [1024],
          "dtype": "float32"
        },
        {
          "name": "conv5_block1_preact_bn/moving_variance",
          "shape": [1024],
          "dtype": "float32"
        },
        {
          "name": "conv5_block1_1_bn/moving_mean",
          "shape": [512],
          "dtype": "float32"
        },
        {
          "name": "conv5_block1_1_bn/moving_variance",
          "shape": [512],
          "dtype": "float32"
        },
        {
          "name": "conv5_block1_2_bn/moving_mean",
          "shape": [512],
          "dtype": "float32"
        },
        {
          "name": "conv5_block1_2_bn/moving_variance",
          "shape": [512],
          "dtype": "float32"
        },
        {
          "name": "conv5_block2_preact_bn/moving_mean",
          "shape": [2048],
          "dtype": "float32"
        },
        {
          "name": "conv5_block2_preact_bn/moving_variance",
          "shape": [2048],
          "dtype": "float32"
        },
        {
          "name": "conv5_block2_1_bn/moving_mean",
          "shape": [512],
          "dtype": "float32"
        },
        {
          "name": "conv5_block2_1_bn/moving_variance",
          "shape": [512],
          "dtype": "float32"
        },
        {
          "name": "conv5_block2_2_bn/moving_mean",
          "shape": [512],
          "dtype": "float32"
        },
        {
          "name": "conv5_block2_2_bn/moving_variance",
          "shape": [512],
          "dtype": "float32"
        },
        {
          "name": "conv5_block3_preact_bn/moving_mean",
          "shape": [2048],
          "dtype": "float32"
        },
        {
          "name": "conv5_block3_preact_bn/moving_variance",
          "shape": [2048],
          "dtype": "float32"
        },
        {
          "name": "conv5_block3_1_bn/moving_mean",
          "shape": [512],
          "dtype": "float32"
        },
        {
          "name": "conv5_block3_1_bn/moving_variance",
          "shape": [512],
          "dtype": "float32"
        },
        {
          "name": "conv5_block3_2_bn/moving_mean",
          "shape": [512],
          "dtype": "float32"
        },
        {
          "name": "conv5_block3_2_bn/moving_variance",
          "shape": [512],
          "dtype": "float32"
        },
        { "name": "post_bn/moving_mean", "shape": [2048], "dtype": "float32" },
        {
          "name": "post_bn/moving_variance",
          "shape": [2048],
          "dtype": "float32"
        }
      ]
    }
  ]
}
